partie_5/checkpoints/encoder_decoder_multi.pt (torch, 487441 bytes, 13 tensors)

conv1.0.weight f4 [32, 1, 3, 3]
-0.23670888 -0.3145074 0.15069315 -0.09602071 0.22357425 0.2957586 0.008595895 0.25689843
0.13253465 -0.32811287 0.081311874 0.195215 0.23027234 -0.25024873 -0.23105672 0.14633562
-0.05201403 0.19827867 0.27704567 0.04439298 -0.13020407 -0.347743 -0.16192053 0.11251305
-0.25622964 0.33523083 0.14898755 -0.12654932 -0.21870787 0.12716007 0.22366446 0.22062828
-0.001969632 0.22319101 0.084255554 0.22739208 -0.21492797 -0.1589095 -0.27424067 0.08665822
0.13343601 0.3447318 0.007090562 0.30535722 -0.18232486 0.2891588 0.088329285 0.143702
0.24970627 0.10014342 -0.039205953 -0.14322746 -0.29418868 -0.26219857 0.058427606 0.11265706
-0.30366272 -0.058409587 -0.24889733 -0.041824758 0.3351137 -0.1646834 0.3615734 0.28981942
0.024884885 0.14732097 0.26959145 -0.09502048 -0.034044288 -0.19886269 0.057550292 0.28851825
0.08022247 -0.1914077 -0.09129126 -0.045915477 -0.13866378 -0.10548288 0.33385742 0.31578642
-0.16513088 -0.34445402 0.06069158 0.27110443 -0.08020657 -0.20825318 0.20779534 0.3074813
-0.058027625 -0.05727229 0.33274195 -0.29184693 0.103878304 0.30215237 -0.062347863 -0.04054064
-0.09691549 0.004452582 0.25271687 -0.03440959 -0.010098345 0.1399657 0.058214888 0.05768522
-0.078774706 0.14169128 -0.2854728 0.022453167 0.081474505 -0.3066352 0.12092748 0.08894584
-0.0023539672 -0.05621086 0.20227912 0.20177506 0.27938694 -0.07602092 -0.22408828 -0.2533411
-0.30457088 -0.19436778 -0.10097567 -0.23533086 -0.20400017 -0.026094051 0.080584 0.18212701
-0.05704541 -0.12604342 0.045220625 0.21350077 0.087680526 -0.007421383 0.2653635 0.030869488
0.124139845 -0.07896347 -0.06491833 -0.083130054 0.27526912 0.2714312 -0.07942859 0.19036916
0.101156846 0.31242707 0.08499769 -0.008991977 -0.1798709 -0.11026539 0.085884 -0.138094
0.018057864 -0.14097811 -0.21005046 0.043920826 -0.3115078 0.17731722 0.17689767 0.009148426
0.30798653 0.10110129 -0.16358723 0.104442544 0.069600716 0.18571539 0.23789136 -0.261457
0.2777398 -0.13877869 0.17006105 -0.18297665 0.29348344 -0.058393866 -0.28208923 0.007136652
0.00013425696 -0.23058298 0.1473449 0.4331082 -0.07498839 -0.14240958 0.29303733 -0.083367296
-0.03135187 0.1614851 -0.14523314 -0.17000112 0.08995367 0.27604207 0.20237362 0.088711895
-0.21525706 0.2251639 0.21190073 -0.14989044 -0.23112136 0.119881324 0.29725832 0.17128587
0.052731887 0.22687304 0.074005604 0.2072313 -0.30323315 0.18039161 -0.20787692 0.21848696
-0.3374137 0.14362067 0.23072834 0.23800227 0.0015995521 -0.24750748 0.1485085 0.19870019
-0.08477581 0.27239296 0.28372976 0.247292 -0.14007801 0.037266262 -0.17814869 0.20234789
0.04057629 0.3301671 -0.20358612 0.22615497 0.1601601 -0.06693899 -0.294307 -0.004663085
0.29720634 -0.3333509 -0.12024992 -0.07142973 0.13590677 -0.030157033 0.008696382 -0.2969767
0.4126668 -0.044231433 -0.0019106012 0.029122507 -0.26443633 -0.24627177 0.007247746 0.18203159
-0.10667099 -0.36824414 -0.24959752 -0.17852135 -0.37279135 -0.17957263 0.2534623 -0.32611242
00000000: d063 72be 1d07 a1be 4e4f 1a3e 82a6 c4bd
00000010: a6f0 643e ac6d 973e ccd5 0c3c 3188 833e
00000020: 2ab7 073e 69fe a7be d786 a63d 71e6 473e
00000030: 83cc 6b3e 9a20 80be 229a 6cbe 01d9 153e
00000040: aa0c 55bd 9009 4b3e eed8 8d3e 6ad5 353d
00000050: 3754 05be 5f0b b2be 7fce 25be 3e6d e63d
00000060: 8830 83be 60a3 ab3e 3190 183e 2596 01be
00000070: f5f4 5fbe 4036 023e 4c08 653e 61ec 613e
00000080: f114 01bb 2f8c 643e 2d8e ac3d 78d9 683e
00000090: 1416 5cbe 2cb9 22be 4669 8cbe dd79 b13d
000000a0: 73a3 083e b080 b03e f257 e83b c857 9c3e
000000b0: 5eb3 3abe 9f0c 943e fce5 b43d 9e26 133e
000000c0: 00b3 7f3e fe17 cd3d 6c96 20bd 38aa 12be
000000d0: e69f 96be e43e 86be c951 6f3d bfb8 e63d
000000e0: ae79 9bbe e43e 6fbd f1de 7ebe 7050 2bbd
000000f0: 0694 ab3e c4a2 28be 2620 b93e 3663 943e
00000100: 63db cb3c 4fdb 163e e407 8a3e 199a c2bd
00000110: 0672 0bbd a9a2 4bbe dbb9 6b3d aab8 933e
00000120: ae4b a43d 6100 44be eaf6 babd de11 3cbd
00000130: e1fd 0dbe 6807 d8bd 5cef aa3e c2ae a13e
00000140: 1218 29be 475c b0be bc97 783d 33ce 8a3e
00000150: 5843 a4bd 5240 55be 4dc8 543e 306e 9d3e
00000160: 60ae 6dbd 5996 6abd 275d aa3e f66c 95be
00000170: 26be d43d b7b3 9a3e 7960 7fbd f10d 26bd
00000180: a17b c6bd f7e6 913b 1b64 813e 12f1 0cbd
00000190: 8773 25bc 2b53 0f3e bc72 6e3d 5647 6c3d
000001a0: a254 a1bd 8517 113e 7e29 92be b4ef b73c
000001b0: 1bdc a63d 4aff 9cbe d4a8 f73d 3d29 b63d
000001c0: 0445 1abb 5c3d 66bd 4222 4f3e 1f9e 4e3e
000001d0: ce0b 8f3e dbb0 9bbd 6677 65be edb5 81be
000001e0: b7f0 9bbe 5908 47be 55cc cebd 93fa 70be
000001f0: 6ce5 50be 31c3 d5bc 3909 a53d 817f 3a3e
00000200: 73a8 69bd 8711 01be 4339 393d f29f 5a3e
00000210: d991 b33d 132f f3bb badd 873e 02e2 fc3c
00000220: 083d fe3d 9ab7 a1bd e7f3 84bd 1740 aabd
00000230: 13f0 8c3e 08f9 8a3e 75ab a2bd 22f0 423e
00000240: 522b cf3d 71f6 9f3e 4513 ae3d 1653 13bc
00000250: 1430 38be d2d2 e1bd f3e3 af3d 8368 0dbe
00000260: 16ee 933c 915c 10be 7817 57be 53e6 333d
00000270: f37d 9fbe a592 353e aa24 353e 48e3 153c
00000280: 69b0 9d3e 310e cf3d 6983 27be f9e5 d53d
00000290: d28a 8e3d 2d2c 3e3e cb99 733e b1dd 85be
000002a0: e933 8e3e 001c 0ebe 7c24 2e3e 3b5e 3bbe
000002b0: 7643 963e 682e 6fbd 006e 90be 93da e93b
000002c0: 54c7 0c39 f21d 6cbe 95e1 163e 5cc0 dd3e
000002d0: 8393 99bd d1d3 11be fd08 963e 79bc aabd
000002e0: d26a 00bd 5a5c 253e ffb7 14be c614 2ebe
000002f0: a139 b83d 6355 8d3e 083b 4f3e 95ae b53d
00000300: 596c 5cbe 5e91 663e 81fc 583e e17c 19be
00000310: 14ab 6cbe 5784 f53d 3e32 983e 9065 2f3e
00000320: 64fd 573d 6851 683e 4090 973d 7134 543e
00000330: 6041 9bbe 94b8 383e b0dd 54be 0cbb 5f3e
00000340: 7dc1 acbe 4c11 133e 0d44 6c3e deb6 733e
00000350: 10a8 d13a 9a72 7dbe 9d12 183e 1078 4b3e
00000360: f19e adbd 1777 8b3e 0745 913e 1d3a 7d3e
00000370: 9c70 0fbe 82a4 183d 9c6c 36be 4934 4f3e
00000380: 5333 263d aa0b a93e e178 50be 2b95 673e
00000390: 0201 243e 4f17 89bd 68af 96be cbcc 98bb
000003a0: 6e2b 983e f8ac aabe 9745 f6bd c049 92bd
000003b0: 252b 0b3e e20b f7bc 457b 0e3c 540d 98be
000003c0: 1049 d33e 052c 35bd 236d faba 5392 ee3c
000003d0: 3364 87be ab2e 7cbe 807e ed3b 7d66 3a3e
000003e0: 5276 dabd 7f8a bcbe 7e96 7fbe 4dce 36be
000003f0: 82de bebe e3e1 37be d0c5 813e 35f8 a6be

conv1.0.bias f4 [32]
0.084584594 0.15378505 -0.0065970514 0.147918 -0.05293699 0.32616082 -0.022566186 0.21145895
-0.023634573 -0.21777795 0.11554008 -0.0028022213 -0.1904015 0.20040019 -0.1705303 0.2082998
-0.13527444 -0.13280068 -0.26112184 -0.10928147 -0.012084432 -0.13237503 0.07339578 0.0153770605
-0.09871371 -0.1965389 -0.0005092824 0.2481163 -0.11099267 -0.010164879 0.33481762 0.20030612
00000000: b03a ad3d d479 1d3e 142c d8bb d177 173e
00000010: 75d4 58bd 8dfe a63e b9dc b8bc b288 583e
00000020: 4b9d c1bc 2f01 5fbe 47a0 ec3d 79a5 37bb
00000030: 9cf8 42be b535 4d3e 7f9f 2ebe 8b4c 553e
00000040: 6285 0abe e7fc 07be c3b1 85be f7ce dfbd
00000050: c8fd 45bc 528d 07be 8750 963d 11f0 7b3c
00000060: 6a2a cabd 7e41 49be 5d81 05ba 3312 7e3e
00000070: 2050 e3bd 988a 26bc 376d ab3e 0c1d 4d3e

conv1.2.weight f4 [32, 32, 3, 3]
-0.038942568 -0.056265216 -0.048824035 -0.041074347 -0.0011254706 -0.018563872 -0.020699162 -0.041000374
-0.05925401 0.007996794 -0.0011940429 0.007871392 -0.040594153 -0.031565465 -0.015252573 0.0076528154
0.00860513 0.041275714 0.042127114 -0.060392465 -0.044395108 -0.031709682 0.017547773 0.016859388
0.026139032 -0.038831428 -0.018346895 0.00028456002 -0.037083197 0.0008176175 -0.061996955 -0.047597874
-0.026580414 -0.0402613 -0.03203819 0.012122157 -0.02648586 -0.037533082 -0.05599593 -0.024956174
0.009007368 0.007241484 0.02115518 -0.038052093 0.006805774 -0.016706191 0.009600208 0.038459722
-0.010973657 -0.019510938 0.050486844 -0.055252302 -0.027810512 0.042135756 0.05541968 0.04904986
0.0029257983 0.04763657 -0.038528822 -0.018232714 0.005881308 0.0044360613 0.04064576 -0.03265851
-0.008144793 -0.05395731 -0.011943349 0.011057863 -0.03544393 7.375418e-05 -0.037021685 0.029019501
-0.0415043 -0.06209705 -0.0043602954 0.051226497 0.03743066 0.02334882 0.02041763 0.038247537
0.011660797 0.051121306 -0.009858561 -0.010504562 0.03975009 0.01885784 -0.02558282 -0.043220695
-0.036412407 -0.024307322 0.006360836 0.012370271 0.035716943 -0.016612887 0.011576838 0.0027733638
0.007958392 -0.036323097 -0.035763558 -0.0563125 0.042255286 0.012315255 -0.007777229 -0.049091674
0.0019837879 0.046776436 0.03757956 0.046379402 -0.023682822 0.02103613 0.04318514 -0.03384737
-0.016562708 0.041762616 0.046929043 0.038692165 -0.051319905 -0.051990703 -0.03438868 -0.052260067
-0.043714803 -0.038352408 0.009885048 -0.018587805 -0.0634334 -0.005276788 -0.051269818 0.030567868
-0.00743754 0.0135688335 0.046574518 -0.028225498 -0.028111547 -0.045242604 0.036383975 -0.0026316077
-0.035835203 0.007139292 0.025235537 -0.03551632 0.008620943 -0.0390746 -0.03359987 -0.0503339
0.046968255 -0.056875683 -0.050586738 -0.020293254 0.010305091 -0.023980025 0.009731975 0.021603499
0.014027048 0.045427773 0.0050568692 -0.016135585 0.016783979 -0.026034214 -0.047945537 0.02835447
-0.021343015 0.00988761 -0.045587312 0.043046977 0.049944934 0.022920918 -0.012091838 0.007606756
0.03561538 -0.039172523 0.051387098 0.0051695444 -0.014724042 -0.04369996 0.036818665 -0.04930594
-0.014883157 0.0351859 0.024472196 0.018187027 0.036946606 0.011505377 0.0014954619 -0.0011847839
0.044536743 -0.007672727 -0.009172574 0.050347995 0.030676376 -0.043921217 -0.0584076 0.023356743
0.041337717 -0.03893098 0.04180802 -0.010576434 0.046280716 -0.0027002916 -0.020978998 0.0126797715
0.026143923 0.008634452 -0.020547295 -0.028953066 -0.011965355 -0.051163003 -0.009758457 0.033591166
-0.047199618 0.0003053371 -0.06281159 -0.0024427408 -0.011925667 -0.013648466 -0.016395804 0.038263902
0.011670209 -0.0530546 -0.02269708 -0.054506976 -0.0037388362 -0.019032553 -0.0129945595 -0.03665957
-0.042297788 -0.011813971 0.04945478 -0.055435054 -0.011468388 0.0551674 0.05005314 0.028940236
-0.048680313 -0.0051646046 -0.0062180837 -0.04275792 -0.040593646 0.040515218 -0.0146620795 -0.027032793
0.0053499136 -0.059384327 0.025365023 0.039587464 0.014836155 -0.0025523263 -0.0035343242 -0.05771398
0.015766667 0.045547955 0.025159689 -0.010412702 -0.053559408 -0.046305325 0.03761692 -0.0015205975
00000000: 3e82 1fbd 5b76 66bd b6fb 47bd 933d 28bd
00000010: 8784 93ba 4313 98bc 4a91 a9bc 02f0 27bd
00000020: 55b4 72bd fc04 033c 6e81 9cba 03f7 003c
00000030: 0e46 26bd ca4a 01bd eee5 79bc 78c4 fa3b
00000040: 88fc 0c3c b910 293d 7b8d 2c3d 175e 77bd
00000050: a5d7 35bd 03e2 01bd 59c0 8f3c b31c 8a3c
00000060: 8621 d63c b40d 1fbd 3a4c 96bc 0031 9539
00000070: 8de4 17bd 6255 563a 85f0 7dbd fdf5 42bd
00000080: 2bbf d9bc 08e9 24bd 7a3a 03bd 039c 463c
00000090: e0f8 d8bc 4abc 19bd fd5b 65bd e470 ccbc
000000a0: a493 133c f849 ed3b a14d ad3c 83dc 1bbd
000000b0: f802 df3b 6cdb 88bc 314a 1d3c f187 1d3d
000000c0: daca 33bc 67d5 9fbc 4bcb 4e3d 3d50 62bd
000000d0: dfd2 e3bc 8b96 2c3d bfff 623d 82e8 483d
000000e0: c0be 3f3b 901e 433d 66d0 1dbd c65c 95bc
000000f0: fdb7 c03b 615c 913b 2b7c 263d eec4 05bd
00000100: bd71 05bc 5702 5dbd 09ae 43bc 0a2c 353c
00000110: a82d 11bd 79ac 9a38 0da4 17bd 4eba ed3c
00000120: 6a00 2abd 7a59 7ebd cfe0 8ebb e0d2 513d
00000130: e450 193d 0646 bf3c e042 a73c 73a9 1c3d
00000140: ed0c 3f3c 9364 513d cd85 21bc 541b 2cbc
00000150: fed0 223d c27b 9a3c 1093 d1bc 2f08 31bd
00000160: 2d25 15bd 2620 c7bc 8f6e d03b adac 4a3c
00000170: ee4b 123d c017 88bc c7ac 3d3c 53c1 353b
00000180: ea63 023c 87c7 14bd cf7c 12bd f0a7 66bd
00000190: e113 2d3d ecc5 493c 20d8 febb 5a14 49bd
000001a0: 7002 023b a698 3f3d 06ed 193d 54f8 3d3d
000001b0: 7a02 c2bc f653 ac3c e7e2 303d 8aa3 0abd
000001c0: 84ae 87bc 470f 2b3d ab38 403d ad7b 1e3d
000001d0: d234 52bd 34f4 54bd 25db 0cbd a70e 56bd
000001e0: 4b0e 33bd 6a17 1dbd e5f4 213c 7445 98bc
000001f0: 5fe9 81bd e8e8 acbb 4d00 52bd 7769 fa3c
00000200: 9cb6 f3bb d04f 5e3c ecc4 3e3d 2939 e7bc
00000210: 304a e6bc 4f50 39bd 5d07 153d 0d77 2cbb
00000220: efc7 12bd b9f0 e93b c2ba ce3c 9079 11bd
00000230: db3e 0d3c b00c 20bd 04a0 09bd eb2a 4ebd
00000240: c961 403d 7af6 68bd 0a34 4fbd 0a3e a6bc
00000250: afd6 283c c271 c4bc dd72 1f3c d2f9 b03c
00000260: b4d1 653c 7912 3a3d 18b4 a53b c62e 84bc
00000270: 8e7e 893c b445 d5bc 8a62 44bd a247 e83c
00000280: 8cd7 aebc a4ff 213c c3b9 3abd 0752 303d
00000290: 0f93 4c3d a6c4 bb3c d81c 46bc 1842 f93b
000002a0: 6fe1 113d 5e73 20bd 477b 523d 4865 a93b
000002b0: 1c3d 71bc bbfe 32bd 2bcf 163d 06f5 49bd
000002c0: 7cd8 73bc 171f 103d ea79 c83c f6fc 943c
000002d0: 5355 173d 0c81 3c3c 6003 c43a c04a 9bba
000002e0: 296c 363d 806b fbbb 9048 16bc b339 4e3d
000002f0: 064d fb3c bce6 33bd cf3c 6fbd a456 bf3c
00000300: bd51 293d 1776 1fbd e33e 2b3d c848 2dbc
00000310: d990 3d3d 60f7 30bb 26dc abbc d1be 4f3c
00000320: c82b d63c 8477 0d3c cd52 a8bc fb2e edbc
00000330: 560a 44bc 4c90 51bd efe1 1fbc e496 093d
00000340: 6354 41bd a715 a039 5da3 80bd 6416 20bb
00000350: df63 43bc d19d 5fbc 7e50 86bc 9cba 1c3d
00000360: 6734 3f3c c84f 59bd 3aef b9bc b542 5fbd
00000370: 4307 75bb 28ea 9bbc 22e7 54bc 5828 16bd
00000380: 7240 2dbd 638f 41bc 1891 4a3d de0f 63bd
00000390: e8e5 3bbc 36f7 613d 8504 4d3d 1314 ed3c
000003a0: 0265 47bd d83b a9bb 11c1 cbbb ee22 2fbd
000003b0: 8645 26bd 49f3 253d 3839 70bc e073 ddbc
000003c0: 544e af3b fb3c 73bd 4fca cf3c 7726 223d
000003d0: 5813 733c ee44 27bb 1fa0 67bb 7f65 6cbd
000003e0: 1929 813c 7e90 3a3d b11b ce3c 0a9a 2abc
000003f0: 1c61 5bbd a7aa 3dbd 3314 1a3d c94e c7ba

conv1.2.bias f4 [32]
0.011652064 0.025552558 -0.030561851 -0.030328838 0.027733205 -0.0168481 0.009483262 0.027214834
-0.022977985 0.045912523 0.06474158 -0.011440685 -0.033963356 0.042227328 0.05646406 0.05044064
0.008352364 0.05940748 -0.03842654 0.044625513 -0.006518052 0.04874939 0.025727997 0.06989623
0.020603778 -0.05143356 -0.007754485 -0.03722899 -0.015389513 0.050948065 0.022198321 -0.059425045
00000000: 4ce8 3e3c 9953 d13c d95c fabc 2f74 f8bc
00000010: bf30 e33c 0705 8abc af5f 1b3c a5f1 de3c
00000020: 543c bcbc c50e 3c3d 3c97 843d b671 3bbc
00000030: 291d 0bbd 90f6 2c3d dc46 673d d89a 4e3d
00000040: 5bd8 083c 4255 733d 2665 1dbd 3ec9 363d
00000050: 6295 d5bb 71ad 473d 85c3 d23c c125 8f3d
00000060: 41c9 a83c ffab 52bd 5619 febb 6d7d 18bd
00000070: 4c24 7cbc ebae 503d 41d9 b53c ad67 73bd

conv2.0.weight f4 [64, 32, 3, 3]
-0.026765035 0.043053187 0.04904057 0.003176862 0.0328281 -0.028987238 0.056269992 0.037937485
-0.054236773 -0.06166245 0.01331155 0.053477176 -5.324151e-05 -0.012888501 -0.06326605 0.021922408
-0.048656616 -0.06892917 0.052500315 0.013879012 0.04313602 0.040445995 -0.030139502 0.045960963
0.0321066 0.010932279 0.039976824 0.048889145 -0.047422476 -0.019017717 0.020497164 -0.014295691
0.025846863 -0.040217914 -0.037299804 -0.05699237 0.024737483 0.04365661 0.04336826 0.023294823
-0.004837286 0.012352848 0.054243755 0.031733464 0.029363696 0.025748769 -0.04089073 -0.06809288
0.020816505 -0.059124418 -0.049192306 -0.024842752 -0.018725198 0.034445036 0.0046869093 -0.037034433
0.03871743 -0.0145106055 0.010880755 0.04487267 -0.03326454 -0.031859647 0.02643476 -0.024061648
-0.015260917 0.028121613 0.032736007 -0.0358735 0.027213642 0.0037994336 0.07188381 0.0621985
-0.027419755 -0.039969966 0.061586786 0.06434987 -0.048079237 -0.012963158 0.011148595 -0.03654384
0.04220177 0.07581606 -0.020410476 0.052599765 -0.024245609 0.013074233 -0.0059767957 -0.026939722
0.07261237 0.048352048 0.055685867 0.039702088 -0.005876598 0.02526972 -0.035232246 0.04291253
0.03321036 0.01118713 0.025924977 0.027957376 -0.057247214 0.041011516 -0.018218428 0.0026973994
0.04696764 0.034874927 -0.045779537 -0.002348316 -0.05615357 -0.019054513 0.018544398 -0.053470265
-0.044579506 0.03571824 -0.04484901 0.04239273 0.04977782 -0.02377791 0.0020604662 0.009065278
0.06218576 0.060109627 -0.011583452 0.031997304 0.047258016 0.052486654 -0.04716581 -0.012596116
0.008902484 -0.019103974 -0.018630156 -0.006097783 0.08050595 -0.06821116 0.0029959013 0.02757689
0.011682213 0.04877367 0.057479832 0.020624807 0.060710154 0.031397328 0.0044122194 -0.016265836
-0.04561527 0.025400307 -0.055683255 0.02787156 0.008961395 -0.04551422 0.027350789 0.022464855
-0.057312913 -0.028080508 0.010608102 -0.048419207 -0.0027278576 0.012807607 0.03470755 0.051508807
0.0036090715 -0.0388517 -0.049016107 0.050509453 0.013997242 0.024836613 0.032642733 -0.029974556
0.012890354 -0.05035124 -0.023430271 -0.032279193 0.0420268 0.018810246 -0.0280519 0.002249678
-0.053390812 -0.04372444 0.028246693 -0.0077777244 0.062406924 0.049037628 -0.046881884 0.024635531
-0.011550777 0.040641185 0.054905012 -0.025868874 0.025226615 -0.03318132 0.004788281 0.012860875
0.027186567 -0.017244108 0.039292786 0.035176285 0.06770954 -0.012109819 -0.008080815 0.011261917
-0.057857994 -0.0559643 -0.14646117 -0.031668752 -0.089890525 -0.10674592 -0.0707167 0.05802234
-0.009086085 0.060916565 0.03322358 -0.010560726 -0.0346302 0.03538691 -0.016842129 0.054302517
-0.04881622 -0.05736387 0.007340421 0.0028533563 0.025568742 0.022530371 -0.053187758 0.05633329
-0.016311273 0.0018168241 0.002630821 0.037918292 -0.0020916164 0.023598664 0.047872838 0.044932555
-0.0403386 -0.04844248 0.0025455726 -0.053607475 0.032148454 0.019094368 -0.0008828342 0.017129956
0.015456479 0.024645217 -0.016444549 -0.006546406 -0.032343283 0.055655383 0.0029805126 -0.028780604
-0.057159692 -0.045861755 0.038255602 0.009338963 -0.05132729 -0.087933116 -0.05020781 -0.025845684
00000000: 5942 dbbc 8a58 303d c4de 483d e632 503b
00000010: c276 063d a576 edbc 5d7b 663d 5664 1b3d
00000020: 6127 5ebd c491 7cbd b018 5a3c e20a 5b3d
00000030: a34f 5fb8 4b2a 53bc a191 81bd 9f96 b33c
00000040: 294c 47bd bd2a 8dbd 920a 573d cc64 633c
00000050: 65af 303d b3aa 253d 1ee7 f6bc 9041 3c3d
00000060: 3682 033d 4d1d 333c bdbe 233d fc3f 483d
00000070: 123e 42bd 0bcb 9bbc abe9 a73c 7938 6abc
00000080: cdbc d33c 8abb 24bd aec7 18bd d570 69bd
00000090: 43a6 ca3c 46d1 323d eba2 313d c9d4 be3c
000000a0: 1982 9ebb 9a63 4a3c b32e 5e3d f3fa 013d
000000b0: 228c f03c 15ef d23c 0a7d 27bd 4874 8bbd
000000c0: 6087 aa3c 722c 72bd df7d 49bd 0783 cbbc
000000d0: 9665 99bc 3d16 0d3d a594 993b 6bb1 17bd
000000e0: 2b96 1e3d e4bd 6dbc 3245 323c 68cc 373d
000000f0: 6640 08bd 437f 02bd b68d d83c ef1c c5bc
00000100: ed08 7abc 4c5f e63c 3116 063d 17f0 12bd
00000110: 25ef de3c ebff 783b d237 933d dbc3 7e3d
00000120: 659f e0bc 8cb7 23bd 6d42 7c3d ddc9 833d
00000130: bcee 44bd 6d63 54bc 99a8 363c feae 15bd
00000140: c3db 2c3d 7345 9b3d df33 a7bc da72 573d
00000150: ba9e c6bc 4f35 563c ffd8 c3bb b1b0 dcbc
00000160: cbb5 943d cc0c 463d dd16 643d a89e 223d
00000170: 7a90 c0bb 7202 cf3c b04f 10bd 0dc5 2f3d
00000180: 9607 083d 394a 373c 9e60 d43c de06 e53c
00000190: 0e7c 6abd b1fb 273d d03e 95bc dac6 303b
000001a0: 2461 403d 03d9 0e3d 5383 3bbd 34e6 19bb
000001b0: 4901 66bd 3618 9cbc 6cea 973c a303 5bbd
000001c0: 0099 36bd 4a4d 123d 98b3 37bd 00a4 2d3d
000001d0: d4e3 4b3d e4c9 c2bc e308 073b 8886 143c
000001e0: 7fb6 7e3d 8335 763d 85c8 3dbc 9b0f 033d
000001f0: 9f91 413d 3ffc 563d f030 41bd f15f 4ebc
00000200: b9db 113c f07f 9cbc 459e 98bc e9cf c7bb
00000210: 4ee0 a43d 4bb2 8bbd e256 443b eee8 e13c
00000220: c166 3f3c e6c6 473d f96f 6b3d 5bf5 a83c
00000230: 36ab 783d 7c9a 003d 6194 903b ee3f 85bc
00000240: 14d7 3abd 4e14 d03c 2014 64bd e652 e43c
00000250: d1d2 123c 1e6d 3abd c30e e03c 3708 b83c
00000260: f2c0 6abd 1809 e6bc 9bcd 2d3c 3853 46bd
00000270: dbc5 32bb ffd6 513c 8129 0e3d e6fa 523d
00000280: 2c86 6c3b f622 1fbd 1dc5 48bd 00e3 4e3d
00000290: b054 653c 2776 cb3c 63b4 053d 338d f5bc
000002a0: 1032 533c 1a3d 4ebd d7f0 bfbc 3037 04bd
000002b0: 4b24 2c3d f217 9a3c 19cd e5bc 556f 133b
000002c0: 53b0 5abd 6618 33bd 9c65 e73c 48dc febb
000002d0: 679e 7f3d aedb 483d 3807 40bd 74d0 c93c
000002e0: 783f 3dbc 5f77 263d 14e4 603d f6ea d3bc
000002f0: 0ca8 ce3c 23e9 07bd 03e7 9c3b 6bb6 523c
00000300: 5db6 de3c 8443 8dbc 79f1 203d 0215 103d
00000310: 4dab 8a3d 4368 46bc 6565 04bc e783 383c
00000320: 81fc 6cbd d23a 65bd ebf9 15be 18b7 01bd
00000330: 8618 b8bd 9b9d dabd ebd3 90bd d5a8 6d3d
00000340: cddd 14bc a683 793d 7315 083d e506 2dbc
00000350: 66d8 0dbd ddf1 103d 81f8 89bc 516c 5e3d
00000360: 84f3 47bd 61f6 6abd ea87 f03b 60ff 3a3b
00000370: 8a75 d13c 9d91 b83c 68db 59bd bcbd 663d
00000380: 389f 85bc 8022 ee3a da69 2c3b 3650 1b3d
00000390: 8013 09bb fc51 c13c 4f16 443d 330b 383d
000003a0: 163a 25bd 9f6b 46bd 9fd3 263b 8393 5bbd
000003b0: 19ae 033d cb6b 9c3c 006e 67ba 1f54 8c3c
000003c0: 2c3d 7d3c c4e4 c93c b8b6 86bc 3c83 d6bb
000003d0: 647a 04bd e6f6 633d b454 433b 4dc5 ebbc
000003e0: 4820 6abd 89d9 3bbd e8b1 1c3d 7302 193c
000003f0: 903c 52bd 4716 b4bd b4a6 4dbd 54ba d3bc

conv2.0.bias f4 [64]
-0.020856692 -0.06910496 -0.0074847117 -0.025098491 0.0329861 0.036881145 0.01648689 0.040743377
-0.042012393 -0.017388081 -0.03919698 0.06361303 0.038682636 0.026912933 0.05501204 0.06844588
0.06798482 -0.041661635 0.0342961 0.052376334 -0.008371222 0.011894425 0.004968215 -0.008585923
-0.0245861 -0.02050964 -0.03223234 -0.0020916015 0.025412109 -0.026799526 0.05429685 -0.026492618
0.039399043 0.071514264 -0.07049374 -0.0019991386 0.00445646 0.010799244 0.0856935 0.038213663
0.058605064 0.019284485 -0.02246228 0.06465967 -0.021848625 0.01958354 -0.053227995 0.049998216
0.0046106544 -0.00036941233 0.05269017 0.014897906 0.012873533 -0.023225265 0.022749336 0.06911158
-0.0278999 -0.043897435 -0.048209667 0.017049674 0.044077735 0.04758794 -0.04773893 0.045296364
00000000: a7db aabc e786 8dbd 5042 f5bb 5a9b cdbc
00000010: 6f1c 073d af10 173d 840f 873c 87e2 263d
00000020: 3015 2cbd 7371 8ebc 038d 20bd 8c47 823d
00000030: af71 1e3d 8378 dc3c 4e54 613d 5b2d 8c3d
00000040: a03b 8b3d 64a5 2abd 117a 0c3d 9188 563d
00000050: 7327 09bc d6e0 423c 68cc a23b f9ab 0cbc
00000060: ca68 c9bc d503 a8bc 0f06 04bd 4013 09bb
00000070: 0e2d d03c ae8a dbbc 6066 5e3d 0c07 d9bc
00000080: e460 213d 1276 923d 065f 90bd fb03 03bb
00000090: 7f07 923b 50ef 303c 1380 af3d ee85 1c3d
000000a0: dd0b 703d 7ffa 9d3c d102 b8bc 4a6c 843d
000000b0: e3fb b2bc a96d a03c 9905 5abd eeca 4c3d
000000c0: f914 973b afad c1b9 a6d1 573d 5916 743c
000000d0: 83eb 523c e942 bebc d15c ba3c 5f8a 8d3d
000000e0: 558e e4bc cccd 33bd 8077 45bd c2ab 8b3c
000000f0: db8a 343d 92eb 423d e589 43bd ae88 393d

conv2.2.weight f4 [64, 64, 3, 3]
0.02294829 -0.006864063 0.00029299158 -0.032438315 -0.014608699 0.031219663 -0.03671111 -0.04751718
-0.0037683179 -0.040236615 -0.0247063 0.020944204 -0.022464028 0.04015507 -0.023628121 0.014182076
0.00412995 0.0155796 -0.03192107 0.00732292 -0.011835567 0.011373566 0.015689416 0.0014599939
-0.016230633 0.026055658 -0.029030671 -0.014224421 -0.03490876 -0.04091847 -0.016982755 0.022178078
-0.017473139 -0.008321721 -0.022898331 -0.019007266 0.028483368 -0.021387583 -0.036468346 -0.03086398
-0.027980033 -8.14823e-05 0.010695343 0.029575272 0.028225614 0.0065042414 -0.0133003555 -0.023149401
0.032620315 0.018216357 -0.014142171 0.0024454896 -0.013689827 0.013870571 -0.024998244 -0.01953208
-0.03623263 0.021281015 0.011056751 -0.034041606 -0.028267685 -0.007548398 0.034865078 -0.029782446
0.0017062871 0.0021795623 -0.011458455 -0.0015323024 -0.03351154 0.012208729 0.027957784 -0.0045982804
-0.013433319 0.0222749 -0.013770342 -0.030566812 0.02898975 0.022858787 0.0076455176 -0.013932582
-0.016332444 -0.02349942 -0.03525802 -0.021337701 0.031001575 -0.039106637 -0.04060637 -0.0027539001
-0.050192896 0.005675284 0.020297725 -0.028197283 -0.0106444135 0.029302036 -0.0027761976 -0.022764007
-0.00607377 -0.012245322 0.011792258 0.0066634174 0.008908348 -0.038630124 0.019183954 0.01377984
0.007589577 -0.005756553 -0.032982334 0.022230944 0.0041550053 0.03165642 -0.008353727 0.009334785
-0.018822266 -0.0016920238 -0.012600059 -0.006392518 0.025102448 -0.033924278 -0.04045571 0.03316355
-0.03665184 0.0053649424 -0.026719794 0.036575835 -0.04030303 -0.000629204 -0.009991765 0.004867416
-0.024695182 -0.0031001025 0.032161776 -0.04123077 -0.039154552 -0.0102357995 0.029103285 -0.043506674
0.024524804 -0.017261136 0.033112343 0.030056713 0.006036944 -0.03822251 -0.0012862959 -0.01879277
-0.0003280657 -0.038478874 -0.0038586897 -0.012970391 0.024854705 -0.027707925 -0.035764083 0.0051715057
-0.018884901 -0.021406272 -0.040551353 0.025852863 0.02765423 -0.025008596 -0.0051640505 -0.008485433
-0.026408475 -0.0048456006 6.0865026e-05 0.033859458 0.03458167 0.009145445 -0.001851525 -0.025881644
-0.033209246 -0.031597417 -0.043169156 -0.013223411 -0.026672555 0.0036717725 0.020151492 -0.03735052
0.031714343 0.034613505 -0.017703846 -0.005839188 -0.03994482 -0.021595906 -0.037968 -0.035728764
0.0040785037 -0.020407593 -0.034628317 0.0028331243 0.0067275353 -0.029079666 -0.04145797 -0.03178639
0.012553152 -0.022838324 0.0023138188 0.006205935 0.0379808 -0.022274971 0.0165425 0.00033865735
-0.027930597 0.034210857 -0.04297218 -0.01664151 -0.031863566 0.029787328 -0.035617717 0.008698758
0.021195382 -0.04068932 -0.03668201 0.025915084 -0.032663725 0.013031287 0.031849887 0.033820804
-0.010442241 0.0040137176 -0.018557174 0.0033599841 0.026671574 -0.026195563 -0.0019487512 0.020432752
-0.026263196 0.022575092 -0.008454381 -0.026072381 -0.009249321 -0.00944246 0.03402888 0.007035237
-0.028873611 0.005470633 -0.006025443 -0.03202864 0.026067147 -0.020334063 -0.028768107 -0.03498035
0.0059441375 0.026879042 0.014054341 0.037897244 0.022748237 0.0039545787 -0.04372764 -0.0034863404
-0.0057477984 0.0010523249 -0.03441628 -0.030519724 -0.046350814 0.010980156 -0.013240657 -0.043119922
00000000: 0dfe bb3c efeb e0bb aa9c 9939 0ade 04bd
00000010: 5359 6fbc 61c0 ff3c 645e 16bd 60a1 42bd
00000020: e2f5 76bb 26cf 24bd de64 cabc 2e93 ab3c
00000030: 7b06 b8bc a579 243d c38f c1bc f05b 683c
00000040: 8854 873b 9441 7f3c abbf 02bd 1bf5 ef3b
00000050: f7e9 41bc 3258 3a3c 1787 803c 445d bf3a
00000060: 1bf6 84bc ad72 d53c bbd1 edbc 8c0d 69bc
00000070: 7dfc 0ebd 209a 27bd 6b1f 8bbc cdae b53c
00000080: d423 8fbc d457 08bc 4895 bbbc 20b5 9bbc
00000090: f455 e93c 0335 afbc d55f 15bd 75d6 fcbc
000000a0: 6236 e5bc 7ae1 aab8 853b 2f3c d747 f23c
000000b0: 6739 e73c 8821 d53b bce9 59bc d0a3 bdbc
000000c0: e19c 053d 783a 953c 90b4 67bc 8244 203b
000000d0: 4c4b 60bc 6441 633c 1ec9 ccbc be01 a0bc
000000e0: ab68 14bd 8655 ae3c 6027 353c 366f 0bbd
000000f0: a291 e7bc 8d58 f7bb afce 0e3d 51fa f3bc
00000100: 7fa5 df3a fdd6 0e3b 3ebc 3bbc 89d7 c8ba
00000110: 6643 09bd 1f07 483c b907 e53c 2cad 96bb
00000120: 6c17 5cbc da79 b63c 009d 61bc 4067 fabc
00000130: ea7b ed3c 5a42 bb3c 4087 fa3b 7c45 64bc
00000140: 9ecb 85bc db81 c0bc b76a 10bd 67cc aebc
00000150: 04f7 fd3c 482e 20bd dd52 26bd c77a 34bb
00000160: 1197 4dbd bcf7 b93b 6a47 a63c fdfd e6bc
00000170: e865 2ebc d30a f03c def0 35bb 957b babc
00000180: 7a06 c7bb 9aa0 48bc 5134 413c cc58 da3b
00000190: 52f4 113c 9f3a 1ebd ab27 9d3c d7c4 613c
000001a0: fdb1 f83b 77a1 bcbb 7c18 07bd ab1d b63c
000001b0: b626 883b 2aaa 013d 12de 08bc edf0 183c
000001c0: 2731 9abc e6c6 ddba 7a70 4ebc 5478 d1bb
000001d0: a6a3 cd3c 2ff4 0abd e3b4 25bd 81d6 073d
000001e0: 3d20 16bd 66cc af3b 78e3 dabc 8bd0 153d
000001f0: ca14 25bd 2af1 24ba 80b4 23bc d87e 9f3b
00000200: 8d4d cabc 172b 4bbb 11bc 033d 99e1 28bd
00000210: 8660 20bd 0eb4 27bc 036a ee3c 0e34 32bd
00000220: 3ee8 c83c 3a67 8dbc cfa0 073d 7f39 f63c
00000230: 8fd1 c53b 358f 1cbd ee98 a8ba 4cf3 99bc
00000240: 3c00 acb9 069c 1dbd 12e2 7cbb c381 54bc
00000250: 189c cb3c bbfb e2bc 5c7d 12bd bc75 a93b
00000260: 82b4 9abc 355c afbc 2d19 26bd 62c9 d33c
00000270: 208b e23c d4de ccbc 3237 a9bb 7c06 0bbc
00000280: 9656 d8bc d8c7 9ebb 5349 7f38 37b0 0a3d
00000290: 82a5 0d3d c7d6 153c dfae f2ba be05 d4bc
000002a0: 6b06 08bd 4b6c 01bd 24d2 30bd 01a7 58bc
000002b0: 6780 dabc 1fa2 703b be14 a53c dcfc 18bd
000002c0: e6e6 013d e4c6 0d3d a807 91bc a956 bfbb
000002d0: 2e9d 23bd e6e9 b0bc 5584 1bbd 5358 12bd
000002e0: f8a4 853b d32d a7bc 6cd6 0dbd f0ab 393b
000002f0: a872 dc3b 7b38 eebc d5cf 29bd 7232 02bd
00000300: bcab 4d3c 7017 bbbc 70a3 173b 285b cb3b
00000310: c191 1b3d 007a b6bc 2384 873c d28d b139
00000320: b5ce e4bc af20 0c3d 9903 30bd c753 88bc
00000330: 5f83 02bd 8e04 f43c e2e3 11bd 3c85 0e3c
00000340: f0a1 ad3c d8a9 26bd e03f 16bd df4b d43c
00000350: 66ca 05bd 2e81 553c 0775 023d af87 0a3d
00000360: ef15 2bbc 8185 833b 3705 98bc 2e33 5c3b
00000370: 587e da3c 1498 d6bc 3d6d ffba 9662 a73c
00000380: ea25 d7bc 66ef b83c 3e84 0abc bf95 d5bc
00000390: 778a 17bc 8cb4 1abc de61 0b3d d887 e63b
000003a0: 5a88 ecbc ff42 b33b 1471 c5bb 7730 03bd
000003b0: c58a d53c 9f93 a6bc 18ab ebbc 8e47 0fbd
000003c0: 0ac7 c23b 7031 dc3c 2e44 663c 243a 1b3d
000003d0: 835a ba3c 6995 813b c11b 33bd 167b 64bb
000003e0: 0758 bcbb 2aee 893a 16f8 0cbd 8004 fabc
000003f0: 5ada 3dbd 1de6 333c 57ef 58bc 849e 30bd

conv2.2.bias f4 [64]
-0.04978566 0.051952805 0.023887584 -0.01366462 -0.0038914066 0.013370845 0.012803378 0.011944442
0.0025689474 0.013712259 -0.021260696 -0.0036807957 0.005893619 -0.0098554185 0.043057345 0.056861777
-0.029151682 0.00036090644 0.031783126 0.041502565 0.0018202353 0.017983181 0.010564129 0.014295068
-0.0027864932 0.004455467 0.014032017 0.034437876 9.7830634e-05 0.018130703 0.0020901232 0.055278175
0.013494779 0.03144138 -0.039022107 -0.014658791 -0.02919586 -0.015776915 0.005964233 -0.0054333108
0.022855965 -0.025956895 -0.046065386 -0.03892521 -0.012022483 0.053028297 0.0405209 0.026836073
-0.0044306736 0.042217094 0.027599879 0.036035903 -0.064458385 0.038867988 0.023603762 0.045455232
0.009106613 0.025949271 0.035411038 0.0025224078 0.05347704 0.0110780215 0.05258394 0.040220514
00000000: 0cec 4bbd 77cc 543d e5af c33c 92e1 5fbc
00000010: f806 7fbb 6311 5b3c 42c5 513c 9fb2 433c
00000020: c95b 283b 62a9 603c e92a aebc 8139 71bb
00000030: 421f c13b 9f78 21bc e65c 303d e5e7 683d
00000040: 82cf eebc 0b38 bd39 062f 023d 98fe 293d
00000050: f694 ee3a 7751 933c 2b15 2d3c dc35 6a3c
00000060: 999d 36bb 2bff 913b 8ce6 653c bb0e 0d3d
00000070: 6c2a cd38 d786 943c 73fa 083b 5e6b 623d
00000080: 3519 5d3c adc8 003d a5d5 1fbd 6d2b 70bc
00000090: 282c efbc 973e 81bc 9d6f c33b ea09 b2bb
000000a0: 6f3c bb3c 8ea3 d4bc 0faf 3cbd 0a70 1fbd
000000b0: f3f9 44bc 3334 593d 3ef9 253d 53d7 db3c
000000c0: 2f2f 91bb d5eb 2c3d 2419 e23c 629a 133d
000000d0: c202 84bd 0a34 1f3d ad5c c13c 442f 3a3d
000000e0: e733 153c 9193 d43c 2a0b 113d fb4e 253b
000000f0: be0a 5b3d 9780 353c 4262 573d 44be 243d

deconv1.weight f4 [64, 64, 3, 3]
0.020892167 0.0036076452 0.03728856 0.012396034 -0.027866606 0.023065204 -0.037354484 1.8729066e-05
0.008793185 0.042936835 0.034300502 0.009918572 0.021895485 0.04744879 -0.026019774 0.048409894
-0.006108939 -0.012977116 0.030498616 0.11578178 0.0912894 0.0067627025 0.08087651 0.047051102
-0.054966073 -0.032422103 0.004808975 0.0138643775 -0.038091656 -0.047152612 0.002174865 -0.025674542
-0.034945615 0.01698116 -0.014154485 -0.03733813 -0.011619257 0.024725772 -0.009463699 -0.030793518
0.01073147 0.014506618 -0.003713806 -0.028834252 -0.0014353307 -0.009147921 0.032489896 0.03194019
0.026370391 0.0066389567 -0.009545033 0.021653526 0.035275765 0.027443744 -0.027029274 -0.03585925
0.024620129 0.021821594 -0.005935602 0.012798309 0.027452042 0.027134707 -0.0070240796 -0.026896104
-0.018234918 -0.023537645 -0.06959257 -0.046864416 -0.05433794 -0.06463825 -0.076633625 -0.019973246
-0.029305808 0.039637715 -0.019259851 -0.03150473 -0.023586927 0.0076552415 0.0077335485 0.016618494
-0.0030346885 0.0003222382 0.03826362 0.030125992 0.027905896 0.0021003503 0.02283192 0.037684817
0.034734823 0.045598213 -0.017467178 0.015372512 -0.013857559 0.03634897 0.008071902 0.019404536
-0.0053591314 -0.01014218 -0.012243583 -0.032756597 0.016148806 -0.04097912 0.06093611 0.045671277
0.0061349897 0.030650398 0.038568135 0.012696042 -0.050329894 -0.018755741 -0.005727381 -0.020390186
0.030007437 -0.033906598 0.016923983 0.057599265 -0.008923662 -0.00052151375 -0.018823773 0.027450457
0.001904036 -0.02482367 -0.022594627 0.06461643 -0.019404067 0.026546013 -0.0100812595 0.03477074
-0.019090403 0.017090257 -0.017372455 -0.034601655 0.043476716 0.0441748 0.00020450974 0.027303202
-0.016063841 0.037793387 0.055998657 0.052770674 -0.024858925 -0.013249559 0.03924408 0.00828022
0.050660357 -0.039916653 -0.029473783 0.09476326 0.012653574 -0.054375373 -0.023593964 -0.04453651
0.011282821 0.037420075 0.005398183 -0.03924696 0.025842478 0.023424646 0.039447594 0.034261115
0.012305178 -0.037119955 -0.038710654 0.028467221 -0.017464483 -0.058613412 0.061095536 0.07242186
-0.034906212 0.03340161 0.028723454 0.031070828 -0.023357986 -0.0014767274 0.0120666865 -0.007109711
0.02367838 -0.0059365826 0.017164377 0.046812005 -0.0030333498 -0.011167296 -0.038766302 0.017654244
0.014005566 -0.026617335 0.033278555 -0.02549543 0.038288303 -0.022937767 -0.028903523 -0.04238216
-0.038167857 -0.045622688 -0.0007781335 -0.03976163 0.01136237 0.008392326 0.020283628 -0.013096153
0.022223283 0.026910821 0.012125309 0.011674705 0.035080362 -0.009838545 -0.014177669 -0.018295312
0.019274559 -0.004327453 0.004485443 0.040075727 -0.023092834 0.025051145 -0.0020732086 -0.020665972
-0.061946537 -0.03846112 0.018060658 -0.055785965 -0.03772297 -0.028860124 -0.048319716 0.020303946
-0.009138182 -0.0077521577 -0.009994668 0.008289526 0.029370653 0.029973974 0.01876524 0.002669542
0.06719043 -0.010871918 -0.036652867 -0.0014442558 0.04881427 0.011185254 -0.04226942 -0.0045120586
-0.046582926 -0.044708416 -0.010701996 0.0057592615 -0.04366435 -0.00091015385 0.0369437 -0.003559305
-0.028784946 0.11544065 -0.035221975 -0.06109543 -0.015479347 0.050722085 -0.03011378 -0.0023722232
00000000: 0d26 ab3c 3e6e 6c3b e4bb 183d bc18 4b3c
00000010: 8248 e4bc 3df3 bc3c 0401 19bd 5d1c 9d37
00000020: 4b11 103c 89de 2f3d af7e 0c3d 8281 223c
00000030: 295e b33c aa59 423d 6c27 d5bc 7449 463d
00000040: 7f2d c8bb f89d 54bc 3cd8 f93c ff1e ed3d
00000050: f0f5 ba3d a999 dd3b 95a2 a53d a8b8 403d
00000060: 1b24 61bd 0acd 04bd 9b94 9d3b 6a27 633c
00000070: ff05 1cbd 1923 41bd 2e88 0e3b 6b53 d2bc
00000080: 2223 0fbd 131c 8b3c 37e8 67bc deef 18bd
00000090: b25e 3ebc b48d ca3c a10d 1bbc b042 fcbc
000000a0: 0cd3 2f3c 2aad 6d3c 5363 73bb cf35 ecbc
000000b0: b521 bcba 29e1 15bc 2014 053d b7d3 023d
000000c0: b806 d83c 9b8b d93b c562 1cbc bc62 b13c
000000d0: 527d 103d b4d1 e03c 7f6c ddbc 26e1 12bd
000000e0: 27b0 c93c 33c3 b23c 707f c2bb 00b0 513c
000000f0: 1be3 e03c 9b49 de3c 402a e6bb 3855 dcbc
00000100: 6561 95bc 05d2 c0bc 8d86 8ebd e7f4 3fbd
00000110: 7691 5ebd 0f61 84bd 17f2 9cbd ef9e a3bc
00000120: bc12 f0bc 285b 223d d6c6 9dbc 1b0b 01bd
00000130: 5f39 c1bc d2d8 fa3b b569 fd3b 8223 883c
00000140: a0e1 46bb 14f2 a839 50ba 1c3d c9ca f63c
00000150: e89a e43c 08a6 093b 020a bb3c 655b 1a3d
00000160: 1a46 0e3d 31c5 3a3d 5417 8fbc fddc 7b3c
00000170: d10a 63bc a8e2 143d 0340 043c 43f6 9e3c
00000180: a79b afbb 632b 26bc 4f99 48bc c82b 06bd
00000190: 804a 843c b9d9 27bd 2498 793d ce11 3b3d
000001a0: 0608 c93b 8b16 fb3c 9ff9 1d3d 0f03 503c
000001b0: b826 4ebd a4a5 99bc c1ac bbbb 5209 a7bc
000001c0: 28d2 f53c a5e1 0abd 2aa4 8a3c 35ed 6b3d
000001d0: 8d34 12bc 32b6 08ba 5034 9abc c8df e03c
000001e0: d990 f93a 025b cbbc 5e18 b9bc 9e55 843d
000001f0: 47f5 9ebc 0677 d93c de2b 25bc c36b 0e3d
00000200: 7a63 9cbc de00 8c3c ae50 8ebc 77ba 0dbd
00000210: a414 323d a3f0 343d aa71 5639 f7aa df3c
00000220: 5198 83bc 3dcd 1a3d d95e 653d 1026 583d
00000230: f2a4 cbbc ae14 59bc 67be 203d c3a9 073c
00000240: 3c81 4f3d a57f 23bd 0173 f1bc 3d13 c23d
00000250: f050 4f3c b6b8 5ebd 2148 c1bc ea6b 36bd
00000260: 95db 383c cb45 193d 3ee3 b03b 6cc1 20bd
00000270: 9bb3 d33c 0be5 bf3c cd93 213d 6255 0c3d
00000280: a89b 493c 180b 18bd 108f 1ebd 1734 e93c
00000290: ad11 8fbc 9e14 70bd 503f 7a3d ea51 943d
000002a0: d1f9 0ebd 20d0 083d 734d eb3c 4088 fe3c
000002b0: 3f59 bfbc c08e c1ba 5ab3 453c 94f8 e8bb
000002c0: 29f9 c13c aa87 c2bb 4f9c 8c3c f2bd 3f3d
000002d0: 2acb 46bb 09f7 36bc 6ac9 1ebd a29f 903c
000002e0: 9a77 653c 990c dabc 184f 083d cbdb d0bc
000002f0: 32d4 1c3d fce7 bbbc 15c7 ecbc ea98 2dbd
00000300: e655 1cbd dbde 3abd a8fb 4bba 17dd 22bd
00000310: 3c29 3a3c f77f 093c da29 a63c 3f91 56bc
00000320: 9a0d b63c 1574 dc3c 3ba9 463c 4347 3f3c
00000330: 6db0 0f3d d931 21bc 7449 68bc 0de0 95bc
00000340: aee5 9d3c 4fcd 8dbb 9ffa 923b 7226 243d
00000350: 2f2d bdbc 0f38 cd3c abde 07bb af4b a9bc
00000360: a7bb 7dbd 6889 1dbd f2f3 933c d37f 64bd
00000370: 6783 1abd 116c ecbc e5ea 45bd 7654 a63c
00000380: 50b8 15bc d005 febb adc0 23bc cbd0 073c
00000390: b99a f03c fb8b f53c 90b9 993c 7cf3 2e3b
000003a0: 239b 893d 2120 32bc 5121 16bd 2f4d bdba
000003b0: 79f1 473d 5b42 373c b322 2dbd e4d9 93bb
000003c0: bdcd 3ebd 2c20 37bd 6d57 2fbc 30b8 bc3b
000003d0: 64d9 32bd 6497 6eba 4752 173d 3b43 69bb
000003e0: 68ce ebbc 266c ec3d eb44 10bd 343f 7abd
000003f0: 169d 7dbc f6c1 4f3d 2db1 f6bc 4d77 1bbb

deconv1.bias f4 [64]
-0.025282523 0.040719904 0.04762339 -0.0015776465 -0.018754907 -0.011922883 -0.014713914 0.040183585
0.037179362 -0.044652108 0.033783793 -0.010129074 0.0006200704 -0.01842786 0.038842164 0.018320551
0.019526634 0.048242442 0.063221 0.03355932 0.011558975 0.010577221 0.047658563 -0.02540671
-0.021824133 0.046979275 -0.040989526 0.054844122 0.050655887 0.0125275925 -0.02617196 -0.015517734
0.015662529 0.024380045 -0.04113424 0.012067503 0.012064581 0.026274059 0.048671134 -0.037718702
0.040784128 0.039364684 0.042581566 0.034886606 0.01798549 -0.018134976 0.03112877 -0.0042072386
0.03878389 0.026224185 0.052002974 0.02692311 0.0019818665 -0.016708849 0.05499023 0.010924643
-0.0330147 -0.009965809 -0.009410286 -0.049327504 -0.031090962 0.028860336 0.03750555 0.054248597
00000000: 4b1d cfbc eac9 263d be10 433d 08c9 ceba
00000010: e4a3 99bc 3258 43bc a112 71bc 8b97 243d
00000020: 6349 183d 21e5 36bd e060 0a3d 6af4 25bc
00000030: 388c 223a 06f6 96bc f618 1f3d fb14 963c
00000040: 52f6 9f3c de99 453d 037a 813d 7f75 093d
00000050: db61 3d3c 154c 2d3c a035 433d bc21 d0bc
00000060: 86c8 b2bc 576d 403d a2e4 27bd 3ba4 603d
00000070: 8c7c 4f3d 8840 4d3c 9466 d6bc 183e 7ebc
00000080: b44e 803c a9b8 c73c 607c 28bd c7b6 453c
00000090: 85aa 453c b23c d73c 625b 473d ed7e 1abd
000000a0: 420d 273d dd3c 213d 026a 2e3d 42e5 0e3d
000000b0: 4e56 933c cd8f 94bc c301 ff3c e0dc 89bb
000000c0: dbdb 1e3d 1ad4 d63c 1201 553d db8d dc3c
000000d0: 34e2 013b ffe0 88bc 6f3d 613d 46fd 323c
000000e0: 6c3a 07bd a247 23bc 9a2d 1abc a30b 4abd
000000f0: 79b2 febc 836c ec3c 6b9f 193d c733 5e3d

deconv2.weight f4 [32, 64, 3, 3]
-0.08796496 0.009946873 -0.046425246 -0.057967465 0.09436656 0.061229702 -0.06758797 -0.009843513
-0.04267331 -0.029349558 0.066727094 -0.06248099 -0.06476234 0.020555565 -0.0012463636 -0.050738424
0.05335819 0.0040788776 0.010795976 0.0077184686 -0.11014864 -0.010826122 0.04487654 -0.05200169
-0.06256893 -0.0015737502 -0.0946782 0.033935796 0.030324684 -0.05573618 0.07889433 0.13395956
0.0004914349 0.026189648 0.088365845 -0.020616848 -0.009721521 -0.08023103 -0.029527696 -0.14747545
-0.04392424 -0.18057756 -0.058345832 0.099029735 -0.08038037 0.11652431 0.27538005 -0.003798486
0.2720419 0.5033674 0.2558045 0.02504851 0.11108917 -0.034859832 -0.05476099 0.4565026
-0.13249475 -0.044121303 0.25699317 -0.048294522 -0.12987962 -0.011376416 -0.16753563 0.005481944
0.09820039 0.0327249 0.094982326 0.15573156 0.09466263 -0.0025791752 0.0684673 0.0771104
0.0033787973 -0.0025895424 -0.018133398 -0.0046914704 0.025479387 0.024065863 -0.025885504 0.002601277
-0.002043169 -0.009936571 0.0038278163 -0.016803244 0.012069137 -0.036904894 0.023852991 0.00262135
0.0202955 -0.033814076 -0.09713639 -0.09725019 -0.099745005 -0.04005165 -0.07185414 -0.20424414
0.046433046 0.008776488 -0.084757 -0.039564133 0.029928494 0.029722143 0.020174563 0.015217811
0.03323848 0.024541799 -0.026222762 -0.0019706301 0.02204568 0.096007876 -0.11021788 0.09659696
0.062639184 -0.16786464 -0.07990557 -0.0477769 -0.062337324 0.025476668 -0.035891093 -0.020083368
0.041223515 0.023240913 0.021098752 -0.026335672 0.017512385 0.025567409 -0.06645076 -0.010242093
-0.018580323 0.012676088 0.025258541 0.031087447 -0.060338926 -0.024534872 -0.07528511 -0.06897397
-0.046280917 -0.05410383 0.035353016 0.025046168 -0.086443424 0.011037996 0.029991925 -0.074787036
0.05044199 -0.001251079 0.021139681 0.0074254125 -0.051070474 -0.017017009 -0.02000329 0.016309652
-0.032458894 -0.023642588 -0.032551438 -0.046339247 -0.0071424977 -0.015474924 -0.020847498 -0.032192875
0.04718151 -0.030110454 -0.018048564 0.3079037 -0.095060185 0.19792 0.50116926 0.27140716
-0.077513725 0.22422706 -0.05800063 -0.09157189 -0.03351129 -0.1162709 -0.07354361 0.0065051825
-0.05224661 -0.04582171 -0.0596659 -0.08006187 -0.01511197 0.020314068 -0.08833231 -0.036911357
0.033407 -0.0810716 0.02983668 0.0067247003 -0.05381334 0.001113618 -0.054904804 -0.08825878
-0.07365408 -0.09118558 -0.12081906 0.011372492 -0.039668836 -0.086747676 -0.09280826 -0.047914192
-0.061142586 -0.023895688 -0.0054699522 -0.101172596 -0.04460265 0.036693748 -0.046903465 0.028949888
-0.008355591 0.026086546 -0.029102337 -0.035129618 0.012132036 0.004833598 0.000704898 0.008484084
0.07176299 -0.048355635 0.003467193 0.08606244 -0.06165352 0.05675901 0.07714651 0.07390286
0.18699124 -0.039196838 -0.026380192 -0.07669734 0.031142341 0.04876373 -0.043970063 0.01708692
0.087870605 -0.07468193 -0.0058758403 -0.03405286 -0.014496621 -0.017349577 -0.03981037 0.024421137
-0.036560915 0.0027057074 -0.025779746 -0.0057268008 -0.0032844914 -0.14710774 -0.014416745 0.022638785
-0.10189822 -0.009055428 -0.013399347 -0.13735107 -0.022270678 -0.00717095 -0.0092088925 -0.045124963
00000000: f926 b4bd 36f8 223c 6628 3ebd 4b6f 6dbd
00000010: 4143 c13d ffcb 7a3d 906b 8abd b046 21bc
00000020: 35ca 2ebd 7c6e f0bc 37a8 883d 11ec 7fbd
00000030: 1ea2 84bd 2564 a83c 065d a3ba 18d3 4fbd
00000040: 1e8e 5a3d 1ba8 853b 9be1 303c 35eb fc3b
00000050: 9c95 e1bd 0c60 31bc 76d0 373d b9ff 54bd
00000060: 2424 80bd 4b46 ceba a5e6 c1bd 4300 0b3d
00000070: 796b f83c 9f4b 64bd 5a93 a13d b22c 093e
00000080: a3d3 003a ac8b d63c 27f9 b43d aae4 a8bc
00000090: 0447 1fbc 2b50 a4bd 11e4 f1bc ce03 17be
000000a0: e7e9 33bd 53e9 38be 0afc 6ebd 1ad0 ca3d
000000b0: 779e a4bd 4ca4 ee3d 9dfe 8c3e 05f0 78bb
000000c0: 1349 8b3e b0dc 003f cff8 823e 8832 cd3c
000000d0: b882 e33d 2fc9 0ebd 0f4d 60bd b5ba e93e
000000e0: b4ac 07be 8ab8 34bd 9c94 833e 7ad0 45bd
000000f0: 2aff 04be 2664 3abc 768e 2bbe e1a1 b33b
00000100: 491d c93d 8b0a 063d 1886 c23d 1878 1f3e
00000110: 7bde c13d 6107 29bb 9538 8c3d 0fec 9d3d
00000120: d06e 5d3b 50b5 29bb 7e8c 94bc e8ba 99bb
00000130: 26ba d03c c625 c53c d60d d4bc 307a 2a3b
00000140: b0e6 05bb 00cd 22bc 1adc 7a3b f5a6 89bc
00000150: a1bd 453c 9629 17bd 5967 c33c f5ca 2b3b
00000160: c042 a63c a180 0abd 72ef c6bd 1c2b c7bd
00000170: 1c47 ccbd 330d 24bd 4328 93bd 6025 51be
00000180: 9430 3e3d 42cb 0f3c 1495 adbd 000e 22bd
00000190: 9a2c f53c da7b f33c 2045 a53c 2054 793c
000001a0: 1325 083d e20b c93c 1ed1 d6bc b025 01bb
000001b0: 2499 b43c c79f c43d e9b9 e1bd a1d4 c53d
000001c0: f948 803d b5e4 2bbe 88a5 a3bd b6b1 43bd
000001d0: 6c55 7fbd 72b4 d03c 8a02 13bd e085 a4bc
000001e0: fdd9 283d ba63 be3c 4ad7 ac3c e8bd d7bc
000001f0: 2276 8f3c be72 d13c 5617 88bd 74ce 27bc
00000200: c335 98bc 5eaf 4f3c 00eb ce3c 1aab fe3c
00000210: f325 77bd 5bfd c8bc 142f 9abd 3a42 8dbd
00000220: 0f91 3dbd fa9b 5dbd 53ce 103d 9f2d cd3c
00000230: 4009 b1bd b6d8 343c a0b1 f53c f229 99bd
00000240: 439c 4e3d 3ffb a3ba 202d ad3c e050 f33b
00000250: 462f 51bd 4167 8bbc f1dd a3bc d29b 853c
00000260: 9ef3 04bd 1aae c1bc a854 05bd 39ce 3dbd
00000270: 9d0b eabb 898a 7dbc 5fc8 aabc addc 03bd
00000280: 6641 413d 33aa f6bc 95da 93bc 8ea5 9d3e
00000290: eaae c2bd 8aab 4a3e a14c 003f e1f5 8a3e
000002a0: 84bf 9ebd c79b 653e 1292 6dbd 0b8a bbbd
000002b0: 2243 09bd 701f eebd 089e 96bd 6d29 d53b
000002c0: 8b00 56bd 8caf 3bbd 3b64 74bd 7af7 a3bd
000002d0: 3298 77bc b069 a63c 92e7 b4bd 5d30 17bd
000002e0: c7d5 083d de08 a6bd 0e6c f43c e05a dc3b
000002f0: 606b 5cbd d2f6 913a dce3 60bd 05c1 b4bd
00000300: f3d7 96bd 81bf babd fc6f f7bd b053 3a3c
00000310: ca7b 22bd c4a8 b1bd 4212 bebd ac41 44bd
00000320: a670 7abd e4c0 c3bc 493d b3bb 9433 cfbd
00000330: 45b1 36bd 2f4c 163d d91d 40bd 5128 ed3c
00000340: e4e5 08bc 74b3 d53c 0668 eebc 13e4 0fbd
00000350: 72c5 463c 2963 9e3b e7c8 383a d400 0b3c
00000360: 79f8 923d 8f10 46bd d939 633b 8141 b03d
00000370: 6788 7cbd 237c 683d fdfe 9d3d 625a 973d
00000380: a27a 3f3e dd8c 20bd 461b d8bc 7f13 9dbd
00000390: 391e ff3c 7abc 473d f419 34bd def9 8b3c
000003a0: 81f5 b33d d7f2 98bd 1f8a c0bb 037b 0bbd
000003b0: 3c83 6dbc b320 8ebc 3310 23bd d60e c83c
000003c0: e6c0 15bd 3d52 313b 0c30 d3bc e3a7 bbbb
000003d0: 9f40 57bb 69a3 16be 3634 6cbc f974 b93c
000003e0: 04b0 d0bd 385d 14bc ef88 5bbc c2a5 0cbe
000003f0: ff70 b6bc 4afa eabb e5e0 16bc f4d4 38bd

deconv2.bias f4 [32]
0.023786472 0.0029709595 0.04188774 0.025930317 0.021816052 0.004288084 0.013613871 0.02611978
-0.023544384 -0.008459067 0.005857549 0.049566265 -0.010361499 0.03799584 0.014726835 -0.019000791
-0.005998965 0.02624427 0.013310525 -0.006008862 -0.0012947803 -0.027926791 -0.046323318 -0.015081609
-0.06685497 0.04418347 0.0037395074 -0.043363545 0.03182157 0.042656045 -0.014443236 0.028811123
00000000: d9db c23c 6eb4 423b 7b92 2b3d d16b d43c
00000010: 94b7 b23c 0e83 8c3b b70c 5f3c 26f9 d53c
00000020: 27e0 c0bc e697 0abc aff0 bf3b ff05 4b3d
00000030: 47c3 29bc 87a1 1b3d d348 713c 8ca7 9bbc
00000040: f792 c4bb 39fe d63c 6314 5a3c fde5 c4bb
00000050: 9eb5 a9ba bac6 e4bc 85bd 3dbd da18 77bc
00000060: 42eb 88bd baf9 343d 8612 753b f99d 31bd
00000070: 5657 023d 1bb8 2e3d 53a3 6cbc 4e05 ec3c

out.weight f4 [1, 32, 1, 1]
-0.27195358 0.17341058 -0.14622314 -0.033286802 0.11741976 -0.06977816 -0.16459347 0.22772096
-0.026984496 -0.086507976 -0.034260567 -0.032763027 -0.04963171 -0.10800889 0.14571808 -0.064954706
0.28356868 -0.06349008 -0.068647854 0.26941106 0.31733382 -0.060349945 0.041150376 -0.13154042
0.3636449 -0.053103957 0.21262746 -0.0072458647 0.25958905 -0.15422654 0.3306729 -0.120850086
00000000: 803d 8bbe 8b92 313e 85bb 15be be57 08bd
00000010: c579 f03d dae7 8ebd 318b 28be af2f 693e
00000020: 970e ddbc 182b b1bd cf54 0cbd 8632 06bd
00000030: 9f4a 4bbd c433 ddbd 1f37 153e f906 85bd
00000040: ea2f 913e 1607 82bd 3f97 8cbd 3ff0 893e
00000050: 9479 a23e 8131 77bd 4c8d 283d 88b2 06be
00000060: aa2f ba3e 8983 59bd 03bb 593e b86e edbb
00000070: dbe8 843e 90ed 1dbe f54d a93e 4080 f7bd
