partie_5/checkpoints/encoder_decoder_simple.pt (torch, 487525 bytes, 13 tensors)

conv1.0.weight f4 [32, 1, 3, 3]
-0.24455538 -0.25908682 0.19923912 -0.00062858104 -0.18931967 -0.28271395 -0.31537026 0.006543398
0.20628977 -0.039354414 -0.31661898 0.25661972 0.26365462 0.24419096 -0.058405023 -0.124849394
-0.026807614 0.10519029 0.05256729 -0.24586965 -0.13259447 -0.20719978 0.26128525 0.18354593
0.09024828 0.16176288 -0.17784995 -0.07247219 -0.2193857 -0.13202603 0.17955476 0.123949684
-0.22790074 -0.20257656 0.30894202 0.2325257 -0.1024758 0.18428202 0.28525552 0.010280304
0.140365 -0.26687586 -0.008661226 -0.024960186 -0.21072821 0.00041399163 0.07059762 0.34179464
-0.25661293 0.06479932 0.12793455 0.29532942 0.08617698 0.3022456 0.3161461 -0.2019983
0.13342883 -0.030722545 0.025863072 -0.29454017 0.28226084 0.3250425 -0.041845903 0.10426696
0.23727424 -0.29901773 0.24572024 -0.09126626 -0.3115262 -0.104520984 0.2271472 -0.07193671
-0.22348146 0.24327765 0.2639114 -0.19933724 0.024989143 0.23490308 -0.032527257 -0.031888682
-0.13733074 -0.13151658 -0.026189566 -0.12077941 0.2670529 0.1178171 -0.030171614 -0.03830422
0.035939913 0.27070853 -0.23337315 0.06929869 0.32515407 0.08996086 -0.07518712 0.09700852
-0.2561667 -0.25455877 0.35319254 -0.37244886 0.19145769 0.19708472 0.25319642 0.3186238
-0.087095685 -0.08443238 -0.08082878 -0.26504138 -0.08038857 0.1384745 0.04778973 0.21462798
0.2797898 0.14993386 -0.35047245 0.10532756 -0.24254227 0.04963695 -0.19010307 0.07292596
0.32550013 0.32328653 0.24000718 0.32533273 -0.22099921 -0.10548515 0.25538027 0.30768102
-0.024861382 0.21137044 -0.040991183 -0.31976497 0.17189343 -0.19071282 -0.31123704 0.1985129
-0.2800256 0.30330607 0.29171842 -0.22319835 0.04159613 0.31845075 0.053151492 -0.2564294
0.08839098 0.21138802 -0.06222154 -0.24474502 0.038920388 -0.09249305 -0.2349807 0.18707058
0.0029933876 -0.034234773 0.3805417 -0.025866032 -0.09081265 0.34166726 0.19361897 -0.15291746
0.11888423 -0.23738004 0.13285026 -0.29549903 -0.24782452 -0.3234004 -0.1710687 -0.07078472
0.24014026 -0.18213241 0.22526589 -0.22378066 -0.23820233 -0.1370921 0.30295032 0.043301504
-0.19441369 0.28181732 -0.18809587 0.26643026 0.17811336 0.32852757 -0.19476163 0.101464145
0.24849212 -0.14819781 -0.025031727 0.17464705 0.13957113 0.12385092 0.022317976 -0.2685941
0.18053383 0.016084395 0.24677876 0.31588033 -0.28476703 -0.28543136 -0.14592327 0.055660125
-0.13245983 0.40001968 -0.07258475 0.07561487 0.056096736 0.08592938 -0.33713147 -0.113352545
0.19120176 -0.025175672 0.02191746 0.22667529 0.26677456 -0.15109323 -0.06682015 0.21373904
-0.23342142 0.31479412 0.09798074 -0.1436953 0.31250757 -0.3249559 -0.16175157 0.15960798
0.15384516 -0.07503875 0.16961414 0.2155067 0.25762835 -0.3414655 -0.14049965 0.18445691
0.23450898 -0.23039564 0.23440568 -0.09377115 0.2688351 -0.257157 0.13299344 0.2864357
0.29914272 -0.081443086 -0.32764167 0.07197035 0.2976999 0.26925305 0.16658126 -0.35842544
0.050094932 -0.24899778 -0.27556828 0.14135607 -0.15448783 -0.08026697 -0.24926594 -0.20500772
00000000: ba6c 7abe 07a7 84be 5705 4c3e 5cc7 24ba
00000010: 04dd 41be e2bf 90be 3678 a1be 006a d63b
00000020: a03d 533e 1832 21bd e21b a2be a963 833e
00000030: bdfd 863e 320d 7a3e 1b3a 6fbd 0ab1 ffbd
00000040: a49b dbbc 026e d73d cc50 573d 41c5 7bbe
00000050: d8c6 07be 2e2c 54be 2ec7 853e 77f3 3b3e
00000060: 17d4 b83d 2ba5 253e 4c1e 36be 4d6c 94bd
00000070: a5a6 60be d531 07be 34dd 373e 55d9 fd3d
00000080: d05e 69be 3b70 4fbe a62d 9e3e 381b 6e3e
00000090: d5de d1bd 6db4 3c3e 030d 923e b86e 283c
000000a0: d8bb 0f3e f4a3 88be d1e7 0dbc 4e79 ccbc
000000b0: 23c9 57be 040d d939 7c95 903d b5ff ae3e
000000c0: c562 83be 82b5 843d 4601 033e 6b35 973e
000000d0: 8e7d b03d efbf 9a3e e7dd a13e a4d8 4ebe
000000e0: 91a1 083e d9ad fbbc cbde d33c f8cd 96be
000000f0: 7e84 903e f86b a63e 9c66 2bbd ea89 d53d
00000100: 05f8 723e da18 99be 169e 7b3e cee9 babd
00000110: 5d80 9fbe 190f d6bd 4799 683e 8e53 93bd
00000120: 53d8 64be c71d 793e 651f 873e 101f 4cbe
00000130: 08b6 cc3c 6f8a 703e 4d3b 05bd b59d 02bd
00000140: 6ea0 0cbe 48ac 06be 808b d6bc 325b f7bd
00000150: 28bb 883e 174a f13d 762a f7bc e3e4 1cbd
00000160: bb35 133d 4f9a 8a3e 5ff9 6ebe 79ec 8d3d
00000170: 987a a63e 663d b83d b4fb 99bd 67ac c63d
00000180: 4828 83be 8755 82be a7d5 b43e 9eb1 bebe
00000190: 7c0d 443e 94d0 493e f6a2 813e a922 a33e
000001a0: 395f b2bd e2ea acbd 8f89 a5bd 81b3 87be
000001b0: c3a2 a4bd 42cc 0d3e 2abf 433d 70c7 5b3e
000001c0: 9c40 8f3e 4388 193e 2071 b3be fab5 d73d
000001d0: 005d 78be 1d50 4b3d 61aa 42be 355a 953d
000001e0: f4a7 a63e d085 a53e 71c4 753e 0392 a63e
000001f0: 9e4d 62be 9908 d8bd 34c1 823e 5e88 9d3e
00000200: 19aa cbbc 7e71 583e 5fe6 27bd 3cb8 a3be
00000210: d504 303e 394a 43be 765a 9fbe f746 4b3e
00000220: 845f 8fbe ef4a 9b3e 1e5c 953e 1c8e 64be
00000230: b460 2a3d fa0b a33e 61b5 593d b74a 83be
00000240: 5506 b53d 1a76 583e 03dc 7ebd 709e 7abe
00000250: fc6a 1f3d ff6c bdbd c89e 70be 6e8f 3f3e
00000260: b62c 443b c339 0cbd 5dd6 c23e 00e5 d3bc
00000270: fcfb b9bd 03ef ae3e 0d44 463e 6596 1cbe
00000280: 9379 f33d c113 73be e609 083e a64b 97be
00000290: b6c5 7dbe bd94 a5be a22c 2fbe 94f7 90bd
000002a0: 54e7 753e eb80 3abe 1aac 663e c226 65be
000002b0: 50eb 73be df61 0cbe 4e1c 9b3e eb5c 313d
000002c0: 6214 47be 5c4a 903e 349c 40be 8c69 883e
000002d0: 5963 363e c434 a83e 986f 47be 6fcc cf3d
000002e0: b874 7e3e 2bc1 17be 560f cdbc add6 323e
000002f0: bceb 0e3e 8da5 fd3d 30d4 b63c 2a85 89be
00000300: dcdd 383e 6cc3 833c 92b3 7c3e 11bb a13e
00000310: fccc 91be 0f24 92be e96c 15be dffb 633d
00000320: 8da3 07be 61cf cc3e 50a7 94bd f8db 9a3d
00000330: b1c5 653d befb af3d 7f9c acbe 6125 e8bd
00000340: 65ca 433e 363d cebc 3f8c b33c 911d 683e
00000350: ad96 883e 2fb8 1abe 01d9 88bd 68de 5a3e
00000360: 0606 6fbe b22c a13e 20aa c83d dc24 13be
00000370: fe00 a03e 9f60 a6be 34a2 25be 4670 233e
00000380: 9689 1d3e ebad 99bd 54af 2d3e caad 5c3e
00000390: dde7 833e 91d4 aebe 24df 0fbe 46e2 3c3e
000003a0: 1f23 703e d6ec 6bbe 0b08 703e 170b c0bd
000003b0: c1a4 893e 15aa 83be 6f2f 083e b3a7 923e
000003c0: 3c29 993e a2cb a6bd a6c0 a7be 3165 933d
000003d0: 1f6c 983e 89db 893e 4794 2a3e 8a83 b7be
000003e0: 5830 4d3d 46f9 7ebe 4917 8dbe a5bf 103e
000003f0: 0f32 1ebe 0263 a4bd 923f 7fbe 8bed 51be

conv1.0.bias f4 [32]
0.25894567 0.25513104 -0.0014986265 -0.000217572 -0.000597844 -0.06926991 0.30557373 0.30673757
-0.14818881 0.09403867 -0.12308878 -0.07563034 -0.26717865 -0.16484636 0.16684873 0.044486985
0.2581576 -0.05156298 0.18991408 -0.0026193464 0.2679438 -0.0730423 0.0012134203 -0.27735135
-0.1809594 0.13097028 -0.027095499 -0.13644601 0.3106307 -0.15562859 -0.18818578 -0.034197915
00000000: 8794 843e 89a0 823e 906d c4ba 0a24 64b9
00000010: a2b8 1cba 62dd 8dbd 2974 9c3e b50c 9d3e
00000020: cfbe 17be 5997 c03d f815 fcbd 14e4 9abd
00000030: a4cb 88be 7ccd 28be 65da 2a3e fc37 363d
00000040: 3c2d 843e b433 53bd d678 423e 57a9 2bbb
00000050: ee2f 893e 3497 95bd a10b 9f3a ff00 8ebe
00000060: 6c4d 39be 131d 063e 61f7 ddbc 81b8 0bbe
00000070: fd0a 9f3e 1a5d 1fbe c6b3 40be 1d13 0cbd

conv1.2.weight f4 [32, 32, 3, 3]
0.04905106 -0.0355094 0.041968644 -0.0141340885 0.028928515 -0.04841638 -0.036382537 0.058493044
-0.0034562913 0.057288513 0.0060263593 0.036144428 0.047423236 -0.048645854 -0.019304186 -0.00047347732
-0.028796725 0.042008795 0.07663569 0.14922734 0.1050757 0.2239057 0.25425756 0.1371205
0.10092648 0.08550937 0.1363964 0.16454759 0.18337293 0.12804683 0.098838694 0.17696926
0.16384357 0.12394318 0.1302662 0.1668427 0.06205566 0.13189496 0.09191329 0.033465542
0.11228395 0.046568535 0.042321455 0.14845836 0.068793945 -0.04593943 0.04313222 -0.0076341536
-0.042914562 0.03829529 0.036299 0.05043866 0.019619917 0.03453463 0.036832582 -0.04617321
0.033055566 -0.021468494 -0.05124004 0.011884148 0.035083123 -0.03377135 0.023409577 0.028081056
-0.011255142 0.01049477 0.04777023 -0.01865624 0.015556465 -0.02008399 -0.027332278 0.05195417
0.00051992247 0.07006228 0.045433026 0.04147735 0.10175231 0.07588946 0.057647925 0.14316824
0.009558925 0.054681182 -0.022857517 0.03809248 -0.016317511 0.05647892 -0.0058556693 0.033605687
0.021331131 -0.0045379335 0.07360197 0.030840635 0.11299878 0.13042182 0.04147017 0.047292423
0.020795232 0.06738291 0.05430865 -0.027309898 0.07138744 0.059085406 -0.012515199 0.027166842
0.08368635 0.018556846 0.10181056 -0.018494809 -0.024213947 -0.029434696 -0.018594349 -0.05453201
0.013266199 -0.000751471 -0.0495702 0.034788053 -0.03764177 -0.0587197 -0.0046688085 0.034254257
-0.042977665 0.022199396 0.020927921 0.035506133 -0.066548124 -0.0405606 0.04982533 -0.031024812
-0.0035810568 -0.011799455 0.008500777 0.013887681 -0.0169739 -0.049977068 -0.0035365976 -0.007131489
0.001882216 0.063512534 0.047419876 0.0002785772 -0.037328806 -0.007255345 -0.043399002 0.05800538
0.03696497 0.07108358 0.033878762 -0.013319671 -0.008277861 -0.052316077 -0.015705502 0.059683487
0.06655501 -0.01790902 0.02437745 -0.04016677 0.010932602 -0.009376983 -0.057252172 -0.073273666
0.03719063 0.06617087 -0.025398549 -0.017649453 0.058558933 0.0041392236 -0.021789437 -0.050305866
-0.00014576351 -0.0192055 0.0040128236 0.18257722 0.053558163 0.1086807 0.1564597 0.13538653
0.116693184 0.014672542 0.11840968 0.07301528 0.049140096 -0.026094392 -0.04223241 -0.04335429
-0.040173557 0.04495975 -0.018410642 0.03938833 0.028908614 0.03923024 -0.018308166 0.066462174
0.06263162 0.029901315 0.04448771 0.040409252 -0.029245023 0.00950916 0.014400768 0.10315577
0.051347658 0.18292408 0.14345042 0.12588766 0.13424872 0.096272185 0.117839545 -0.073737435
-0.05270912 -0.039833125 0.035337187 0.03370112 0.012350368 -0.031718615 0.023256358 0.037710425
0.026200915 0.0319396 0.052726965 -0.063438036 0.034018807 0.025587127 -0.021272182 0.02267936
0.057162378 -0.02185295 -0.042638414 -0.03718938 0.050955646 0.00040253668 -0.012017637 -0.054716714
-0.04564303 -0.03520256 -0.010559227 0.04240915 0.0282954 -0.011793957 -0.05713724 -0.002839649
0.017941307 0.017949745 -0.01573327 0.12676382 0.07794177 -0.02598219 0.08752267 -0.0063245306
0.0949483 0.043346386 -0.016654273 0.08086663 -0.03295641 -0.043005675 0.04672453 0.005743975
00000000: c4e9 483d 4e72 11bd 50e7 2b3d aa92 67bc
00000010: 7efb ec3c 4150 46bd db05 15bd 6796 6f3d
00000020: f282 62bb 5ca7 6a3d c478 c53b 2e0c 143d
00000030: de3e 423d e040 47bd d023 9ebc 0d3d f8b9
00000040: 1ce7 ebbc 6a11 2c3d 2cf3 9c3d 0dcf 183e
00000050: ee31 d73d 8947 653e 0c2e 823e 5169 0c3e
00000060: 8bb2 ce3d 891f af3d 7fab 0b3e 2a7f 283e
00000070: 1dc6 3b3e b51e 033e f16b ca3d 6e37 353e
00000080: 9cc6 273e ecd5 fd3d 8164 053e d0d8 2a3e
00000090: 132e 7e3d 790f 073e 093d bc3d 2a13 093d
000000a0: 21f5 e53d a6be 3e3d 4359 2d3d 7805 183e
000000b0: d7e3 8c3d fc2a 3cbd 69ab 303d ec27 fabb
000000c0: 2ec7 2fbd 86db 1c3d 43ae 143d c598 4e3d
000000d0: f3b9 a03c 2f74 0d3d c3dd 163d 1f20 3dbd
000000e0: 4665 073d b2de afbc 14e1 51bd bbb5 423c
000000f0: 52b3 0f3d d453 0abd 71c5 bf3c 3e0a e63c
00000100: 7d67 38bc 41f2 2b3c b7aa 433d f9d4 98bc
00000110: 8be0 7e3c 2e87 a4bc f1e7 dfbc e5cd 543d
00000120: 684b 083a d07c 8f3d fb17 3a3d 27e4 293d
00000130: 8463 d03d ef6b 9b3d 3b20 6c3d b29a 123e
00000140: 0a9d 1c3c 60f9 5f3d b03f bbbc dc06 1c3d
00000150: 4dac 85bc 7156 673d eae0 bfbb 1ea6 093d
00000160: a0be ae3c f2b2 94bb a1bc 963d 80a5 fc3c
00000170: e86b e73d 4c8d 053e a0dc 293d b3b5 413d
00000180: c35a aa3c 0d00 8a3d bf72 5e3d 02b9 dfbc
00000190: 9433 923d 8a03 723d 8d0c 4dbc ff8c de3c
000001a0: c063 ab3d 8704 983c 0e82 d03d 6d82 97bc
000001b0: 545c c6bc 0821 f1bc 2d53 98bc f55c 5fbd
000001c0: 795a 593c 5dfe 44ba 1f0a 4bbd eb7d 0e3d
000001d0: 422e 1abd 1184 70bd cefc 98bb 314e 0c3d
000001e0: 5909 30bd 82db b53c 0871 ab3c e16e 113d
000001f0: 624a 88bd df22 26bd a515 4c3d bf27 febc
00000200: 2ab0 6abb 8052 41bc d846 0b3c 2889 633c
00000210: d90c 8bbc c1b4 4cbd 43c6 67bb 44af e9bb
00000220: b0b4 f63a dc12 823d 583b 423d 000e 9239
00000230: 17e6 18bd 3fbe edbb 27c3 31bd 0d97 6d3d
00000240: 9568 173d 4594 913d 75c4 0a3d c03a 5abc
00000250: de9f 07bc 6249 56bd d3a8 80bc ac76 743d
00000260: fe4d 883d f0b5 92bc 38b3 c73c e985 24bd
00000270: a81e 333c eba1 19bc 4181 6abd 8110 96bd
00000280: 3455 183d 9884 873d 9e10 d0bc 9695 90bc
00000290: 7edb 6f3d 53a2 873b c37f b2bc 860d 4ebd
000002a0: 18d8 18b9 da54 9dbc 017e 833b 86f5 3a3e
000002b0: ce5f 5b3d fd93 de3d f936 203e c4a2 0a3e
000002c0: d6fc ee3d 1a65 703c c680 f23d 0989 953d
000002d0: 2047 493d e8c3 d5bc e4fb 2cbd 4594 31bd
000002e0: 078d 24bd b727 383d ead1 96bc a855 213d
000002f0: c2d1 ec3c e3af 203d 02fb 95bc 521d 883d
00000300: 0245 803d 9af3 f43c bf38 363d 2c84 253d
00000310: 4293 efbc 4fcc 1b3c 33f1 6b3c 5543 d33d
00000320: ec51 523d 7350 3b3e abe4 123e b2e8 003e
00000330: 7f78 093e 5a2a c53d dc55 f13d a703 97bd
00000340: 85e5 57bd 0f28 23bd babd 103d 300a 0a3d
00000350: 3359 4a3c 61eb 01bd 1e84 be3c 3f76 1a3d
00000360: 4da3 d63c 19d3 023d 3bf8 573d cdeb 81bd
00000370: 4e57 0b3d 189c d13c 0043 aebc 11ca b93c
00000380: 1923 6a3d f504 b3bc 9ea5 2ebd e453 18bd
00000390: deb6 503d 8f0b d339 9fe5 44bc a21e 60bd
000003a0: 30f4 3abd 8f30 10bd 9c00 2dbc 38b5 2d3d
000003b0: c1cb e73c 713b 41bc bd08 6abd 6819 3abb
000003c0: a6f9 923c 580b 933c 0fe3 80bc 60ce 013e
000003d0: ef9f 9f3d 9ad8 d4bc 163f b33d 023e cfbb
000003e0: 4174 c23d fb8b 313d 8b6e 88bc 679d a53d
000003f0: 4dfd 06bd b826 30bd 3962 3f3d f437 bc3b

conv1.2.bias f4 [32]
0.010259983 0.012647149 -0.057945568 -0.012654882 0.048450027 -0.028274313 -0.025514748 -0.024029184
0.03963443 0.06310737 -0.031454086 0.05205512 0.06540588 0.0032723737 -0.040874787 0.044129726
-0.027619548 0.057865735 0.044332746 0.051948138 -0.013771975 0.05072254 -0.043464657 0.053242736
-0.056447636 0.052341904 0.030045463 -0.06769071 0.0049375733 -0.00063478656 -0.03927637 0.042370208
00000000: 7d19 283c fd35 4f3c 5558 6dbd 6c56 4fbc
00000010: 8973 463d 889f e7bc 4e04 d1bc dad8 c4bc
00000020: b657 223d 703e 813d 00d6 00bd c037 553d
00000030: 85f3 853d 5275 563b 526c 27bd 5fc1 343d
00000040: 6442 e2bc 9f04 6d3d 4196 353d 92c7 543d
00000050: daa3 61bc 70c2 4f3d ff07 32bd 0e15 5a3d
00000060: a335 67bd 7764 563d e721 f63c 6da1 8abd
00000070: 5ecb a13b ce67 26ba 42e0 20bd 628c 2d3d

conv2.0.weight f4 [64, 32, 3, 3]
-0.06484151 0.004087752 0.017864253 0.015018364 0.017652055 0.032001704 0.025628671 0.027026594
-0.028890999 -0.02126597 0.013539668 0.008577207 0.042669874 -0.0061474326 0.042387813 -0.04526361
0.046137918 -0.017319322 -0.035200857 0.043275826 -0.04529908 0.028818177 -0.045409195 -0.030858751
-0.037692487 -0.026310466 0.0527227 0.04452368 0.055717736 0.040405568 0.049972218 -0.019659035
-0.008829941 0.06442401 -0.03937097 0.022441288 0.0066205375 0.041040096 0.0023404919 -0.027063664
0.05785289 -0.058640745 -0.042483743 0.0047290213 -0.0033370815 0.03410363 -0.021146124 0.01330588
0.054198015 -0.017937912 0.045682795 -0.033272747 -0.057924002 0.01237916 -0.050336797 0.0458388
0.024098959 -0.051436685 0.019273344 0.013791832 -0.0064272285 -0.034838263 0.03885077 -0.065482475
-0.03286537 0.045164034 -0.058335286 -0.064079285 0.04356276 0.008780801 0.038192052 -0.018135697
0.04134542 0.018576233 0.040232163 0.04561083 -0.03701621 0.028745614 -0.05031095 0.008770175
-0.022438806 0.039253645 0.02950614 -0.009369471 0.036261056 -0.010147997 -0.017200744 0.027102856
-0.02960177 0.029995505 -0.03690628 -0.012174456 -0.004689646 -0.06973314 0.020285983 -0.011264906
-0.0012593721 0.010214338 -0.04056502 -0.017037254 -0.0021902265 -0.019899825 0.046153862 0.03431915
-0.04469111 -0.0010014349 0.06814613 0.013073001 0.03540152 -0.043407228 0.038334165 0.033401098
0.011049742 0.054146577 0.001970083 0.030903116 0.05967384 0.010136493 -0.040154494 0.014301791
-0.0141867325 0.035496272 0.0305758 -0.01149162 0.069859356 -0.012138183 -0.063241825 -0.05612852
0.023884313 -0.1212148 -0.12008214 -0.10948474 -0.12522246 -0.035499834 -0.07423648 -0.011838924
0.042824265 0.05004134 0.033366196 0.026531707 0.04670539 -0.042994976 0.024843363 0.05781412
0.034498274 0.059259217 0.0029595094 0.02648438 -0.024535576 0.060758192 -0.031180238 0.041324947
0.00053484 -0.0067167296 0.0231062 0.005699894 0.0055943904 -0.04965623 -0.013880201 0.007653882
0.052579 0.018860029 -0.03215014 -0.007407396 0.03991785 -0.032502867 -0.03124541 -0.03719446
0.03481462 -0.045589108 -0.0012557886 -0.039881416 -0.009923196 0.06838599 -0.03171015 0.013855036
0.02957541 -0.08489585 0.10346549 -0.054296266 -0.02763261 -0.022516701 0.014401731 0.024195466
0.042784978 0.00029050378 -0.01443827 0.037087098 0.010499003 0.00047678433 -0.050669175 -0.00045284262
-0.021584433 0.02677732 -0.011709261 -0.019321708 -0.05617493 -0.03987627 0.05987899 0.025915721
-0.014151052 -0.010038733 0.060784206 -0.053551532 0.005796157 -0.043733105 0.021729225 0.0046088486
-0.01880111 0.02710582 -0.0064456034 0.046490453 -0.020362554 0.0045124013 0.07334653 0.020864561
-0.050295524 -0.040412847 0.040435623 -0.0040416317 0.032260597 0.0018386814 -0.02632094 0.022614693
-0.051661078 0.007866394 0.035482425 0.021478271 0.03206815 -0.0043480583 -0.034806177 0.029588347
0.009016183 -0.040519014 -0.049163874 -0.038314164 0.047648147 -0.002953966 -0.02079144 0.020976346
0.04340436 0.032554638 0.0068382337 -0.009607431 -0.031356975 0.049086016 0.03704648 0.057292234
0.039044153 0.021990953 -0.04504978 0.0043161116 0.051143073 0.016113428 -0.057050835 0.020979054
00000000: a0cb 84bd 8df2 853b 0e58 923c 960f 763c
00000010: 0b9b 903c 3814 033d 38f3 d13c e066 dd3c
00000020: d1ac ecbc f935 aebc 7cd5 5d3c 6a87 0c3c
00000030: 9bc6 2e3d 6770 c9bb d89e 2d3d 5666 39bd
00000040: 1dfb 3c3d 40e1 8dbc c62e 10bd fe41 313d
00000050: 878b 39bd 1914 ec3c fefe 39bd 7ecb fcbc
00000060: 7063 1abd 0c89 d7bc c2f3 573d 765e 363d
00000070: 4838 643d 4f80 253d abaf 4c3d fc0b a1bc
00000080: 75ab 10bc bcf0 833d 7443 21bd cbd6 b73c
00000090: 18f1 d83b a919 283d f062 193b 9eb4 ddbc
000000a0: 27f7 6c3d 4731 70bd 6f03 2ebd e8f5 9a3b
000000b0: f0b2 5abb 3fb0 0b3d a33a adbc e800 5a3c
000000c0: bdfe 5d3d 87f2 92bc e21d 3b3d 0149 08bd
000000d0: b841 6dbd f6d1 4a3c f52d 4ebd 77c1 3b3d
000000e0: 2e6b c53c 46af 52bd 22e3 9d3c 23f7 613c
000000f0: 809b d2bb 91b2 0ebd fc21 1f3d ad1b 86bd
00000100: d79d 06bd ecfd 383d fbf0 6ebd 003c 83bd
00000110: dd6e 323d 59dd 0f3c 456f 1c3d 5091 94bc
00000120: d159 293d 2f2d 983c 7bca 243d 6cd2 3a3d
00000130: 4f9e 17bd ec7b eb3c db12 4ebd c8b0 0f3c
00000140: 96d1 b7bc 6ec8 203d dcb6 f13c 6982 19bc
00000150: 7986 143d c943 26bc 93e8 8cbc cf06 de3c
00000160: 697f f2bc 22b9 f53c 0a2b 17bd 5f77 47bc
00000170: 9aab 99bb 40d0 8ebd ca2e a63c 7190 38bc
00000180: 8411 a5ba 0a5a 273c 8227 26bd b691 8bbc
00000190: e789 0fbb f504 a3bc d50b 3d3d 3d92 0c3d
000001a0: 060e 37bd 9442 83ba 3390 8b3d 2430 563c
000001b0: 2f01 113d c7cb 31bd 4904 1d3d 97cf 083d
000001c0: fa09 353c cdc8 5d3d 821c 013b 8828 fd3c
000001d0: 8e6c 743d 8813 263c 0a79 24bd 0f52 6a3c
000001e0: 786f 68bc 8a64 113d 1a7a fa3c 5947 3cbc
000001f0: 6c12 8f3d 3bdf 46bc ee84 81bd 05e7 65bd
00000200: 09a9 c33c 773f f8bd a0ed f5bd 8939 e0bd
00000210: 513a 00be 4668 11bd 4c09 98bd 0cf8 41bc
00000220: 7f68 2f3d 26f8 4c3d feaa 083d 0659 d93c
00000230: 274e 3f3d 801b 30bd 4f84 cb3c 80ce 6c3d
00000240: 104e 0d3d cbb9 723d 54f4 413b c5f5 d83c
00000250: d5fe c8bc 95dd 783d b36d ffbc 5944 293d
00000260: 8134 0c3a 0318 dcbb 3749 bd3c 2dc6 ba3b
00000270: 2651 b73b 5564 4bbd c869 63bc 6acd fa3b
00000280: 145d 573d 5980 9a3c ddaf 03bd beb9 f2bb
00000290: e680 233d ba21 05bd 60f6 ffbc 3859 18bd
000002a0: c699 0e3d a5bb 3abd 4699 a4ba b25a 23bd
000002b0: e794 22bc f40d 8c3d 81e2 01bd 3c00 633c
000002c0: 2148 f23c e0dd adbd b7e5 d33d c365 5ebd
000002d0: c95d e2bc f274 b8bc 3df5 6b3c 9235 c63c
000002e0: 4d3f 2f3d c24e 9839 7e8e 6cbc a4e8 173d
000002f0: 0304 2c3c e9f8 f939 7b8a 4fbd 826b edb9
00000300: d6d1 b0bc 1c5c db3c 33d8 3fbc 8f48 9ebc
00000310: af17 66bd 4d55 23bd ac43 753d 354d d43c
00000320: d0d9 67bc 7f79 24bc dcf8 783d da58 5bbd
00000330: b0ed bd3b 7c21 33bd 7d01 b23c d305 973b
00000340: c904 9abc 060d de3c a435 d3bb c66c 3e3d
00000350: 5fcf a6bc c4dc 933b b536 963d 28ec aa3c
00000360: ae02 4ebd f187 25bd d39f 253d aa6f 84bb
00000370: b023 043d e9ff f03a 039f d7bc 7342 b93c
00000380: 919a 53bd 0ce2 003c 0556 113d 33f3 af3c
00000390: e459 033d 287a 8ebb ec90 0ebd 4363 f23c
000003a0: 9db8 133c 44f7 25bd 0f60 49bd 50ef 1cbd
000003b0: b42a 433d 5397 41bb cf52 aabc 96d6 ab3c
000003c0: c5c8 313d 0358 053d 4313 e03b 7c68 1dbc
000003d0: 2c70 00bd 6b0e 493d 0dbe 173d 43ab 6a3d
000003e0: c3ec 1f3d 5f26 b43c 1e86 38bd 2b6e 8d3b
000003f0: 667b 513d 4f00 843c 23ae 69bd 44dc ab3c

conv2.0.bias f4 [64]
-0.017093468 0.057411157 0.027428677 0.048811406 -0.0006846628 -0.02940503 0.05567254 0.0116253905
0.054034647 -0.011305664 -0.011027495 0.050632335 0.04678034 0.022728626 0.06326054 -0.024324158
0.023165552 0.024073355 0.061390646 0.045743756 0.052151714 0.07225011 0.011606986 -0.027306462
0.03010494 0.0789442 0.005771059 -0.052531846 0.029826125 -0.04944577 0.055025756 0.025096219
0.030351296 0.0164994 -0.0026227832 0.064069815 -0.037443113 0.064223744 0.06261942 -0.029939182
-0.017477756 -0.027583318 0.03363354 0.024754042 -0.0138978455 -0.0046778214 0.03238901 0.020240651
0.07407289 0.057829715 0.034431968 0.06743571 -0.040204372 0.05797635 0.0690391 -0.02173548
-0.04902048 -0.027013713 -0.06584126 -0.008195512 -0.0077494057 0.04221602 0.03075469 -0.054497
00000000: 9a07 8cbc f627 6b3d 1bb2 e03c 78ee 473d
00000010: f17a 33ba d1e2 f0bc e408 643d 6c78 3e3c
00000020: 6f53 5d3d 643b 39bc abac 34bc da63 4f3d
00000030: be9c 3f3d 6231 ba3c be8e 813d 7543 c7bc
00000040: afc5 bd3c 7c35 c53c c274 7b3d ce5d 3b3d
00000050: 099d 553d def7 933d 3a2b 3e3c cdb1 dfbc
00000060: a39e f63c 7fad a13d 271b bd3b a22b 57bd
00000070: eb55 f43c a687 4abd b062 613d 9696 cd3c
00000080: 48a3 f83c c029 873c 00e3 2bbb 0937 833d
00000090: f35d 19bd bd87 833d 9c3e 803d 0443 f5bc
000000a0: 832d 8fbc 69f6 e1bc 53c3 093d fdc8 ca3c
000000b0: cab3 63bc 6948 99bb 57aa 043d b9cf a53c
000000c0: 87b3 973d dade 6c3d 8908 0d3d bc1b 8a3d
000000d0: 57ad 24bd 9c78 6d3d 5f64 8d3d 9b0e b2bc
000000e0: b3c9 48bd dd4b ddbc c8d7 86bd 7846 06bc
000000f0: baee fdbb b5ea 2c3d 42f1 fb3c 3f38 5fbd

conv2.2.weight f4 [64, 64, 3, 3]
0.0067163487 0.023360044 -0.018211856 -0.008060787 0.02200327 -0.036132097 0.05122908 0.031815164
0.008559284 0.032790627 0.0153959375 -0.00054865 0.12579928 0.026146583 -0.006532358 0.13785437
0.048863646 0.027074374 -0.04191223 -0.042317968 -0.007748234 0.22919792 0.05232568 -0.005787408
0.41312137 0.13909562 -0.047380317 -0.004385359 0.0030548456 0.038522534 0.028317994 0.010923969
0.012995578 -0.0012489234 0.0042858752 0.04104415 0.00557207 -0.025110539 0.03919473 0.014675519
0.038094047 -0.0071235676 0.03472505 -0.009451415 -0.009178582 -0.029732697 -0.016043246 0.037863843
0.025739923 -0.0009600063 -0.052696545 0.070200115 0.00034331647 -0.007934548 0.035725508 -0.021524254
-0.014520187 0.07666621 0.02808049 -0.031414017 0.060437843 0.0005113112 -0.004107684 -0.0408889
-0.01625952 -0.022928335 0.0700439 -0.009855 -0.024924539 0.04244136 0.03538115 0.018259697
-0.0061261673 0.031859424 -0.020315329 0.058471736 0.049021646 0.028768208 0.06949144 0.038931005
-0.03169424 0.049754083 -0.0119316885 0.044533655 0.037250783 -0.04452574 -0.009343145 0.010312973
-0.034735866 0.041552365 0.0039203865 0.046988055 -0.009675342 0.01561195 0.08008922 0.036797706
-0.03523061 0.010949398 -0.008063004 0.0038295574 -0.0029248812 -0.0072829803 0.035449065 0.030099815
0.025206722 0.097896755 0.01596939 0.0027501197 -0.02255484 0.0150414575 -0.020111905 0.046141677
0.036698535 -0.027186416 0.05086264 0.03101811 -0.040951885 -0.03573385 -0.024152668 0.024353396
0.019932004 0.035430055 -0.023000838 0.05124943 0.020887565 -0.020856073 -0.016817067 -0.0027014504
0.008429989 0.064543724 0.0020871104 -0.017525742 0.060529448 0.016292252 -0.032963853 -0.03980353
-0.0015271463 -0.008343195 -0.016844694 -0.013958469 0.0052295676 -0.022339538 -0.030082706 0.040985767
-0.0029844206 -0.027590567 0.007997435 0.041857112 0.03287715 0.032245703 0.006389163 0.03195509
-0.049716182 0.015601571 -0.00830327 0.016138365 0.040026166 -0.008133593 -0.001175166 -0.038988017
-0.019580256 -0.0048758197 6.9360416e-05 0.044121318 -0.0075630113 0.06617718 0.032966305 0.02318171
0.0194673 -0.02708903 -0.004367408 0.028394556 0.007993559 -0.030906018 -0.00035153667 0.045309197
-0.0026029812 0.056873154 0.04577274 0.0027326175 -0.010360671 -0.035152566 -0.02854576 0.1427831
0.05384452 -0.039908748 0.13204059 0.088155605 -0.02411644 -0.023305668 -0.033217546 -0.0080355685
0.0012959654 -0.0012893012 0.0043537025 0.028973961 -0.005223074 -0.025852863 0.04711052 -0.16154744
-0.34476703 0.18335982 0.16993324 -0.2152424 0.11875369 0.25477508 -0.15006821 -0.0044698557
0.039787214 0.0060927966 0.050310392 0.04331254 0.00054132205 0.07026688 0.007375025 -0.0068366146
-0.12855865 -0.20333229 -0.100498 -0.1402138 -0.20752367 0.07693281 -0.06769578 0.0014805158
0.3784788 -0.009141753 -0.0012234787 0.03847911 0.16336803 0.0909741 0.028246006 0.117013104
0.1157582 -0.022634873 0.00021426086 -0.019553762 -0.046585888 0.052037433 0.03851897 -0.01509875
-0.044761676 -0.03466486 -0.015336871 -0.012253745 0.0016681183 -0.019556507 0.04571978 0.047686234
-0.027289882 -0.028656729 0.04275058 -0.0012538815 0.040500537 0.006582557 -0.025221935 0.058021188
00000000: d114 dc3b 905d bf3c 0831 95bc 6411 04bc
00000010: 3440 b43c 40ff 13bd 95d5 513d 9e50 023d
00000020: 3d3c 0c3c 774f 063d 3e3f 7c3c 47d3 0fba
00000030: 87d1 003e 5c31 d63c 640d d6bb b229 0d3e
00000040: 3f25 483d 14cb dd3c 29ac 2bbd 9b55 2dbd
00000050: e6e4 fdbb dcb2 6a3e 7453 563d 4ca4 bdbb
00000060: a584 d33e 156f 0e3e dd11 42bd 0fb3 8fbb
00000070: ce33 483b cec9 1d3d 23fb e73c 72fa 323c
00000080: 68eb 543c eab2 a3ba 8770 8c3b e91d 283d
00000090: e995 b63b 9eb4 cdbc a78a 203d 9771 703c
000000a0: 8108 1c3d d16c e9bb db3b 0e3d 1cda 1abc
000000b0: c361 16bc fc91 f3bc 206d 83bc 1e17 1b3d
000000c0: 88dc d23c efa8 7bba 55d8 57bd 14c5 8f3d
000000d0: 28ff b339 e8ff 01bc e954 123d a253 b0bc
000000e0: 14e6 6dbc 2d03 9d3d 0e09 e63c fcab 00bd
000000f0: ac8d 773d 8409 063a c099 86bb 1f7b 27bd
00000100: af32 85bc 34d4 bbbc 2d73 8f3d de76 21bc
00000110: 8c2e ccbc fed6 2d3d d3eb 103d 5c95 953c
00000120: 04be c8bb 077f 023d 556c a6bc 0f80 6f3d
00000130: ecca 483d 4eab eb3c 8751 8e3d 1e76 1f3d
00000140: d2d1 01bd f0ca 4b3d 217d 43bc ec68 363d
00000150: 4794 183d 9f60 36bd fe13 19bc bef7 283c
00000160: 3247 0ebd d032 2a3d 9676 803b 8c76 403d
00000170: 5385 1ebc 44c9 7f3c d105 a43d 31b9 163d
00000180: f94d 10bd 1b65 333c b11a 04bc 50f9 7a3b
00000190: 5daf 3fbb 11a6 eebb 0a33 113d e393 f63c
000001a0: 547e ce3c 187e c83d 3dd2 823c 5a3b 343b
000001b0: eec4 b8bc 7270 763c b9c1 a4bc 0eff 3c3d
000001c0: 3451 163d 0cb6 debc 5855 503d b119 fe3c
000001d0: 2abd 27bd a85d 12bd d1db c5bc c680 c73c
000001e0: 7148 a33c 1b1f 113d 416c bcbc ecea 513d
000001f0: 661c ab3c 5bda aabc f2c3 89bc d10a 31bb
00000200: f01d 0a3c 802f 843d e7c7 083b 2592 8fbc
00000210: baed 773d 5477 853c 1b05 07bd 0709 23bd
00000220: 872a c8ba e5b1 08bc e2fd 89bc 10b2 64bc
00000230: cb5c ab3b 6801 b7bc 0270 f6bc b1e0 273d
00000240: 4596 43bb 9d05 e2bc ac07 033c 5d72 2b3d
00000250: 31aa 063d 1214 043d 2f5c d13b 57e3 023d
00000260: 32a3 4bbd bb9d 7f3c 700a 08bc 9b34 843c
00000270: 7af2 233d c342 05bc 0708 9aba e6b1 1fbd
00000280: c666 a0bc 57c5 9fbb 9775 9138 8eb8 343d
00000290: 23d3 f7bb e787 873d ad07 073d 92e7 bd3c
000002a0: e379 9f3c d0e9 ddbc 791c 8fbb b39b e83c
000002b0: 6bf7 023c 9e2e fdbc 744e b8b9 2396 393d
000002c0: c796 2abb d3f3 683d 327c 3b3d b715 333b
000002d0: cebf 29bc 23fc 0fbd ccd8 e9bc bc35 123e
000002e0: 128c 5c3d 5b77 23bd a635 073e ed8a b43d
000002f0: d78f c5bc 87eb bebc 1f0f 08bd 9ea7 03bc
00000300: 62dd a93a c5fd a8ba 81a9 8e3b cd5a ed3c
00000310: 5226 abbb 62c9 d3bc f6f6 403d b16c 25be
00000320: 4e85 b0be adc2 3b3e fb02 2e3e 8168 5cbe
00000330: 2235 f33d e171 823e 7bab 19be de77 92bb
00000340: ebf7 223d 15a6 c73b 4512 4e3d 7d68 313d
00000350: 82e7 0d3a 15e8 8f3d 32aa f13b ae05 e0bb
00000360: e1a4 03be 5736 50be e5d1 cdbd 3594 0fbe
00000370: 1681 54be f38e 9d3d 16a4 8abd de0d c23a
00000380: f9c7 c13e 4bc7 15bc 225d a0ba 459c 1d3d
00000390: f349 273e a150 ba3d 2b64 e73c 91a4 ef3d
000003a0: a312 ed3d c56c b9bc 36ab 6039 362f a0bc
000003b0: d8d0 3ebd 3425 553d 11c6 1d3d bf60 77bc
000003c0: 0558 37bd befc 0dbd 8047 7bbc efc3 48bc
000003d0: c3a4 da3a f834 a0bc aa44 3b3d a452 433d
000003e0: 088f dfbc 84c1 eabc 3b1b 2f3d 4859 a4ba
000003f0: e4e3 253d 7eb2 d73b 3b9e cebc a0a7 6d3d

conv2.2.bias f4 [64]
0.018593794 0.010303011 0.0063396785 0.045152146 0.04564482 -0.018247815 0.048651375 0.03167564
0.04603794 -0.036040764 0.05450959 -0.056868922 0.034605164 0.017589929 0.04226445 0.025773816
0.009005407 -0.011066764 0.04466537 0.0145404 0.021687385 0.0053509264 0.027014092 0.0024485392
0.05038769 -0.007906166 0.00062577915 -0.037913263 0.0074783186 0.020404577 0.035275277 0.0025653415
0.028629122 0.026621738 0.018779252 -0.01656146 -0.018171849 -0.009042119 0.037715487 0.02600256
-0.034272082 -0.020596683 0.02087003 0.027696684 0.036290817 0.056414608 0.03975101 -0.014129825
-0.04816786 -0.01974029 0.037982117 0.014908555 -0.045036294 -0.04683991 0.031648815 0.040580485
0.054443967 -0.002110525 -0.019086026 0.022845494 -0.037425566 -0.0027473343 -0.01548725 0.053689815
00000000: 0352 983c f6cd 283c 14bd cf3b 75f1 383d
00000010: 10f6 3a3d 717c 95bc aa46 473d 51be 013d
00000020: 4792 3c3d 7b9f 13bd 7345 5f3d 63ef 68bd
00000030: 25be 0d3d c118 903c 7d1d 2d3d 9c23 d33c
00000040: 6a8b 133c 5f51 35bc 09f3 363d dc3a 6e3c
00000050: bea9 b13c d356 af3b a84c dd3c ac77 203b
00000060: 5363 4e3d dd88 01bc 540b 243a f04a 1bbd
00000070: af0c f53b 8027 a73c cf7c 103d 4a1f 283b
00000080: 9f87 ea3c d515 da3c f2d6 993c e6ab 87bc
00000090: 21dd 94bc 6525 14bc 8e7b 1a3d 5203 d53c
000000a0: e260 0cbd 60ba a8bc a0f7 aa3c 28e4 e23c
000000b0: aea5 143d 0113 673d f4d1 223d c880 67bc
000000c0: a94b 45bd 63b6 a1bc 2393 1b3d 0343 743c
000000d0: fa77 38bd 35db 3fbd 30a2 013d b937 263d
000000e0: a300 5f3d bc50 0abb 4c5a 9cbc 7926 bb3c
000000f0: 8d4b 19bd 9f0c 34bb 3cbe 7dbc dae9 5b3d

deconv1.weight f4 [64, 64, 3, 3]
-0.025020799 0.07550889 0.043691 -0.0003283184 -0.020504681 -0.06907166 -0.02516023 -0.07195751
-0.018162178 0.052237943 0.059450544 0.008200811 0.009079941 0.015146189 0.051895417 -0.0030532707
0.013472924 0.0909351 -0.0041013937 -0.040169146 0.024524942 -0.009422062 0.009946525 0.032954615
0.036494773 -0.011335694 0.006122327 0.014897452 -0.010512257 -0.008803588 -0.021536544 -0.02741071
-0.04909173 0.016539311 0.015466412 0.011288897 0.05608675 0.020109784 0.002180153 -0.00871549
-0.07684735 -0.008174814 -0.040805396 -0.044594117 0.015059664 -0.03688607 0.016882174 -0.001594969
-0.015562856 0.05938367 0.08105191 -0.021036252 0.016021403 -0.0043656696 0.0060962792 0.023033584
-0.00034107518 -0.037987888 -0.06259499 0.0031125988 -0.035939984 -0.034495622 0.013968514 0.011532347
0.05210373 0.08268132 0.03228088 0.07491872 0.049927793 0.08361394 0.08579788 0.07743803
-0.025822818 -0.044019833 0.004872884 0.0034793578 -0.08851132 -0.04908476 0.004847356 -0.019192783
-0.05086632 0.031514287 0.022535278 -0.019550951 -0.0042342744 -0.023921063 0.011087578 0.019171832
0.016986059 -0.030577935 0.00533408 -0.022960603 0.026849948 0.022684429 0.0846714 0.020997632
-0.028469894 -0.03692834 -0.04707266 -0.007877099 -0.031856656 0.0348781 -0.0038823273 0.02175301
0.011292674 0.042083416 -0.019324237 0.05053557 -0.03282102 -0.0030185035 -0.030226126 -0.031037731
0.090587 0.032990895 -0.0027112025 -0.015855674 -0.031478725 -0.043163214 0.014032712 -0.02127485
-0.023427792 -0.036990844 -0.016386826 0.021848207 -0.0063249334 -0.047666248 0.050934378 0.044168513
-0.005580939 -0.020185292 -0.047758278 0.0012245362 0.024875205 0.020294566 -0.011460144 0.015817577
-0.029074134 -0.009428914 -0.016167758 0.03801096 -0.0051039965 0.0045803096 -0.02917696 0.027056945
0.007028074 0.016504182 0.02341035 -0.04630841 0.05805152 0.0052218838 0.018555824 -0.00047155944
-0.037703376 0.04122857 0.04146176 -0.05424005 -0.05557477 -0.10340662 -0.085056104 -0.018976841
-0.017194852 -0.01929311 -0.036108546 -0.041568164 -0.012503187 0.003973325 0.0054986025 -0.04651673
-0.030473642 -0.030504074 0.009369937 -0.00354648 0.030292852 0.005738468 -0.064524874 -0.026287688
-0.054882504 -0.027183063 -0.052298203 -0.0009246066 -0.08398843 6.4024476e-05 -0.00076745485 -0.014278481
0.107380345 0.018990051 0.14278062 0.15101407 -0.082624875 0.0371131 -0.084993154 -0.055484943
0.017029613 -0.098845705 -0.0092381025 0.0055781454 -0.0070958 -0.033750676 -0.036048125 0.0051948796
-0.04874107 -0.000807546 -0.025741903 -0.08375099 -0.031367123 -0.037577264 0.009788804 0.030503936
0.016336503 -0.028717484 0.0044669798 0.021687439 0.012282912 -0.042963527 -0.01855825 -0.024882644
0.066326626 0.017255511 -0.016780214 0.039931137 0.006331919 0.0020909365 -0.021079151 -0.019625487
-0.011479005 0.02225224 0.051042266 -0.041421883 -0.0031537104 -0.01945516 -0.039648578 -0.04059305
-0.053529028 0.012629477 -0.04493193 -0.056753524 -0.040234707 -0.01189391 -0.032173354 -0.05512848
-0.0079618925 -0.09766904 -0.030677067 0.0053493762 -0.041294076 -0.002439499 0.009188289 0.034663007
-0.030902386 0.034760784 -0.0064287893 -0.024366777 0.027039347 -0.044840515 -0.005985381 -0.056199912
00000000: 6bf8 ccbc 68a4 9a3d 56f5 323d 2622 acb9
00000010: 6ff9 a7bc 7175 8dbd d41c cebc 765e 93bd
00000020: d9c8 94bc 74f7 553d 6a82 733d b25c 063c
00000030: 08c4 143c b927 783c 4a90 543d 6219 48bb
00000040: 8abd 5c3c 2f3c ba3d fc64 86bb 6788 24bd
00000050: 88e8 c83c fe5e 1abc c0f6 223c 6bfb 063d
00000060: 8b7b 153d 59b9 39bc cd9d c83b 7114 743c
00000070: 9a3b 2cbc ed3c 10bc 686d b0bc 6d8c e0bc
00000080: 6914 49bd 737d 873c d566 7d3c 11f5 383c
00000090: 38bb 653d 46bd a43c e6e0 0e3b 6acb 0ebc
000000a0: 2562 9dbd a8ef 05bc 8f23 27bd 52a8 36bd
000000b0: cfbc 763c d915 17bd 7c4c 8a3c 470e d1ba
000000c0: 59fb 7ebc 4b3c 733d 8bfe a53d 3854 acbc
000000d0: 513f 833c e40d 8fbb 4cc3 c73b edb0 bc3c
000000e0: 56d2 b2b9 3099 1bbd cd31 80bd befc 4b3b
000000f0: ce35 13bd 484b 0dbd 32dc 643c 2bf2 3c3c
00000100: b96a 553d d354 a93d f538 043d fc6e 993d
00000110: 1681 4c3d c93d ab3d cdb6 af3d d497 9e3d
00000120: 608a d3bc 244e 34bd b7ac 9f3b f005 643b
00000130: 6c45 b5bd 1a0d 49bd 92d6 9e3b 2f3a 9dbc
00000140: 3459 50bd 2015 013d e79b b83c 5129 a0bc
00000150: abbf 8abb 1bf6 c3bc aca8 353c 3f0e 9d3c
00000160: 5926 8b3c 947e fabc 82c9 ae3b e017 bcbc
00000170: 6cf4 db3c b2d4 b93c 3368 ad3d 3a03 ac3c
00000180: b239 e9bc 2c42 17bd 43cf 40bd f30e 01bc
00000190: 207c 02bd 57dc 0e3d a56e 7ebb 5e33 b23c
000001a0: e804 393c a95f 2c3d dd4d 9ebc 63fe 4e3d
000001b0: 556f 06bd 16d2 45bb c89c f7bc d742 febc
000001c0: ad85 b93d 7621 073d 6eae 31bb c2e3 81bc
000001d0: d6ef 00bd e9cb 30bd 76e9 653c 9848 aebc
000001e0: a4eb bfbc b683 17bd aa3d 86bc 03fb b23c
000001f0: 6341 cfbb af3d 43bd 91a0 503d 0bea 343d
00000200: 4fe0 b6bb a05b a5bc 2f9e 43bd 9e80 a03a
00000210: 16c7 cb3c ca40 a63c 54c3 3bbc dd93 813c
00000220: e12c eebc bb7b 1abc 3f72 84bc 61b1 1b3d
00000230: 6d3f a7bb 6c16 963b 8504 efbc 87a6 dd3c
00000240: c24b e63b c733 873c 10c7 bf3c e3ad 3dbd
00000250: 6ec7 6d3d 561c ab3b 6202 983c a33b f7b9
00000260: db6e 1abd 4adf 283d ced3 293d d12a 5ebd
00000270: 5fa2 63bd dac6 d3bd e531 aebd 5275 9bbc
00000280: 38dc 8cbc 960c 9ebc 8ee6 13bd 6143 2abd
00000290: 2bda 4cbc aa32 823b 9f2d b43b 5488 3ebd
000002a0: dca3 f9bc aee3 f9bc 5d84 193c 106c 68bb
000002b0: b728 f83c c209 bc3b 9e25 84bd 4759 d7bc
000002c0: 7acc 60bd 04af debc a436 56bd 4c61 72ba
000002d0: 2002 acbd e144 8638 062f 49ba 4af0 69bc
000002e0: 3aea db3d 0691 9b3c 1535 123e 6fa3 1a3e
000002f0: 3b37 a9bd e803 183d e410 aebd 2e44 63bd
00000300: b081 8b3c 9e6f cabd 695b 17bc e0c8 b63b
00000310: e283 e8bb 263e 0abd 33a7 13bd cf39 aa3b
00000320: b7a4 47bd 7fb1 53ba afe0 d2bc a485 abbd
00000330: d07a 00bd 9eea 19bd 3861 203c 64e3 f93c
00000340: 21d4 853c ee40 ebbc be5f 923b dba9 b13c
00000350: 443e 493c 86fa 2fbd 7907 98bc b0d6 cbbc
00000360: 41d6 873d 6e5b 8d3c a976 89bc d58e 233d
00000370: fd7b cf3b 1808 093b 2fae acbc a1c5 a0bc
00000380: 7012 3cbc 544a b63c b211 513d fea9 29bd
00000390: 7bae 4ebb 6d60 9fbc 8c66 22bd e644 26bd
000003a0: 4141 5bbd deeb 4e3c 8b0a 38bd 6276 68bd
000003b0: 26cd 24bd adde 42bc 35c8 03bd 67ce 61bd
000003c0: 9972 02bc b506 c8bd 794e fbbc d249 af3b
000003d0: fa23 29bd 00e0 1fbb 7a8a 163c ccfa 0d3d
000003e0: 0027 fdbc 5361 0e3d 98a8 d2bb d69c c7bc
000003f0: 9f81 dd3c b0aa 37bd 0421 c4bb e131 66bd

deconv1.bias f4 [64]
0.0028543777 0.008697168 0.013927987 0.044246133 0.038334943 0.045703046 -0.016149437 0.028627448
0.054868747 -0.019790431 0.029672498 0.02029737 0.033766255 0.04602718 -0.02474399 0.037153114
0.009930297 0.021662317 -0.014861847 0.05141058 0.049455173 -0.0034216617 0.006496948 0.023153862
0.010808465 -0.008876485 0.034183677 0.04806004 0.036884867 0.01106375 -0.00019439186 0.0076882653
-0.0074949567 0.0256182 0.033397324 0.05174758 0.017093709 0.019140525 -0.018200163 -0.003353955
0.0058829654 -0.013240395 -0.032985386 0.03183612 -0.018763859 0.029264225 0.0009239719 0.0055794828
-0.013575139 -0.03231763 0.018124903 0.024577418 -0.01320453 -0.037295464 0.053504657 -0.00033733973
0.04133762 0.033042256 0.011736783 -0.005725331 0.024434974 0.01705079 -0.0030297167 0.031125674
00000000: 8310 3b3b 917e 0e3c 3632 643c 6f3b 353d
00000010: 1a05 1d3d 1e33 3b3d d34b 84bc 1c84 ea3c
00000020: 0dbe 603d 8b1f a2bc bd13 f33c ac46 a63c
00000030: 7c4e 0a3d ff86 3c3d e8b3 cabc dd2d 183d
00000040: afb2 223c 2c75 b13c 1b7f 73bc e693 523d
00000050: 8291 4a3d f53d 60bb 5ae4 d43b 2bad bd3c
00000060: fd15 313c ad6e 11bc 2f04 0c3d 9bda 443d
00000070: 9614 173d bb44 353c abd5 4bb9 d8ed fb3b
00000080: 4198 f5bb 42dd d13c a2cb 083d 45f5 533d
00000090: 1b08 8c3c 97cc 9c3c 8218 95bc 07ce 5bbb
000000a0: e4c5 c03b 3eee 58bc af1b 07bd 9766 023d
000000b0: aab6 99bc 87bb ef3c b436 723a 18d4 b63b
000000c0: 436a 5ebc 7e5f 04bd ad7a 943c 9556 c93c
000000d0: d057 58bc 21c3 18bd b327 5b3d f9dc b0b9
000000e0: a351 293d 5157 073d a34b 403c 8f9b bbbb
000000f0: db2b c83c 19ae 8b3c 368e 46bb 45fb fe3c

deconv2.weight f4 [32, 64, 3, 3]
0.004045524 -0.020482047 0.010036459 0.022463448 0.012543445 -0.02752879 0.034333713 0.030090801
-0.046182867 -0.035600513 0.026409993 0.020144163 -0.013198063 -0.04235594 0.02685426 -0.045102745
0.021066776 -0.02033739 -0.028012393 0.00033737594 0.0011545715 0.03471751 0.025649697 -0.0035578783
-0.0091792615 0.018720666 -0.011413007 -0.0047963243 0.029745521 -0.041466635 -0.022029227 -0.032025523
-0.014869792 -0.017558169 0.03487474 -0.044189043 -0.006836754 0.007712397 -0.0011571744 0.0030921411
0.010417335 0.03510371 0.0151449405 0.00875065 -0.029512994 -0.036708876 0.0128332535 -0.01682707
0.021518724 0.0010897336 -0.0041887006 0.0036865044 -0.026667193 -0.044944014 0.02447762 -0.030435806
0.030980881 0.01568396 0.024372365 0.012286175 -0.005763974 0.023353737 0.025328215 0.030007448
-0.021015162 -0.03511461 0.009977766 -0.045022275 -0.027318047 -0.0063309623 -0.010735129 -0.017872153
-0.036126226 0.010215129 -0.046262026 0.008855386 0.0015076638 0.020086639 0.032434467 0.009630379
0.02720978 0.0049418 0.008186717 0.029313106 -0.0271385 -0.017815841 0.025241695 0.012707987
0.007505264 -0.033347804 -0.04337428 -0.02667117 -0.012602776 0.031205414 0.029529188 -0.02454494
-0.017843844 0.0008332556 0.025108363 -0.03102216 0.0062015327 0.004384044 0.009877684 -0.04714065
0.013608557 -0.017457923 -0.020646743 -0.016853746 0.029590849 0.032154914 0.01240851 0.030282276
0.024450071 -0.02448668 -0.026161116 0.00536232 -0.012422629 0.010076618 -0.016680934 0.0059574856
0.031172672 -0.039512143 0.029872509 -0.036870986 -0.02312553 -0.009012308 0.0021040253 -0.018931484
-0.03196481 0.03315608 0.015107185 0.02505504 -0.034738585 -0.012348965 0.0032307208 -0.02570692
0.0133518195 -0.015541373 0.00484816 -0.04639599 -0.026184015 -0.03667962 0.0024240364 0.023811175
0.032314777 -0.01797223 0.0312676 0.023202373 -0.002233656 0.0019783035 0.0017407784 0.022842474
0.017276233 -0.03683646 0.009687719 -0.03268405 -0.009039001 -0.04054737 0.03035136 -0.026355349
-0.010004955 -0.0023193595 -0.010439759 -0.017170917 0.0033545047 0.019183334 -0.01768845 0.0039386414
-0.008730084 0.030088637 0.028724093 -0.03415007 -0.047520895 0.006934891 -0.030149356 -0.0074861487
-0.04870331 -0.029996108 -0.03301553 0.0023390611 0.015759705 -0.042682994 0.031113897 0.0006516853
0.01381842 -0.045375515 -0.030474233 -0.037646603 0.014230492 0.023852088 0.039987277 0.017523129
0.018680053 -0.009099761 -0.00023414896 -0.017082328 -0.012655864 0.029814536 -0.020260334 -0.03023838
0.03358068 -0.024561327 -0.0032581347 0.0076946174 0.033805385 -0.0322873 0.017983232 -0.044695694
0.0058496 -0.010391448 0.027152408 -0.023331366 -0.03850849 -0.04328927 0.013413506 -0.045650583
-0.031902462 -0.0069983886 -0.02254408 0.0209316 -0.0032170257 0.00097307464 0.029367477 -0.019652935
-0.00021298481 -0.013208979 -0.0007758817 -0.013122873 -0.017226048 0.02357579 -0.0056725903 0.03386896
0.00032519907 0.007980445 -0.009331367 -0.02042967 0.025871689 0.0056557874 -0.042412955 -0.019861871
0.025931196 -0.037644114 -0.01087797 -0.0040844777 0.020245066 -2.2392485e-05 -0.017897524 0.031937495
0.033362605 0.010956391 -0.00977796 0.02924304 -0.041045565 0.026184993 0.021678045 0.030175347
00000000: 5190 843b f7c9 a7bc f66f 243c 4405 b83c
00000010: 0683 4d3c 0f84 e1bc 82a1 0c3d fc80 f63c
00000020: 3f2a 3dbd d8d1 11bd c559 d83c 5f05 a53c
00000030: b03c 58bc 6c7d 2dbd 77fd db3c a8bd 38bd
00000040: 3b94 ac3c 999a a6bc 3f7a e5bc d5e1 b039
00000050: fe54 973a f333 0e3d 501f d23c 4b2b 69bb
00000060: 9d64 16bc 155c 993c 9ffd 3abc 7c2a 9dbb
00000070: e1ac f33c ebd8 29bd a376 b4bc 322d 03bd
00000080: 6ea0 73bc 26d6 8fbc d1d8 0e3d 92ff 34bd
00000090: d906 e0bb 46b8 fc3b 54ac 97ba 85a5 4a3b
000000a0: 78ad 2a3c e8c8 0f3d 7c22 783c e35e 0f3c
000000b0: 3cc5 f1bc 0c5c 16bd 9142 523c ecd8 89bc
000000c0: 0948 b03c 64d5 8e3a 5e41 89bb 4899 713b
000000d0: 2875 dabc 3717 38bd 4a85 c83c 8354 f9bc
000000e0: 9ecb fd3c a67b 803c 8ea8 c73c f44b 493c
000000f0: b8df bcbb 5650 bf3c 1e7d cf3c 2ed2 f53c
00000100: fd27 acbc 56d4 0fbd c979 233c 4769 38bd
00000110: 19ca dfbc f673 cfbb 65e2 2fbc 9f68 92bc
00000120: 18f9 13bd 5b5d 273c 407d 3dbd 2e16 113c
00000130: cd9c c53a bc8c a43c 01da 043d bdc8 1d3c
00000140: 0be7 de3c d3ee a13b 9421 063c 0a22 f03c
00000150: 8f51 debc 87f2 91bc acc7 ce3c 2935 503c
00000160: b8ee f53b b597 08bd 3ba9 31bd 7f7d dabc
00000170: e07b 4ebc 7fa2 ff3c 32e7 f13c 7812 c9bc
00000180: 412d 92bc d66e 5a3a 0eb0 cd3c 2f22 febc
00000190: 3a36 cb3b 07a8 8f3b 02d6 213c 8e16 41bd
000001a0: 6df6 5e3c eb03 8fbc 5c23 a9bc de10 8abc
000001b0: 8268 f23c dfb4 033d 104d 4b3c 8912 f83c
000001c0: 844b c83c 4a98 c8bc d64f d6bc 67b6 af3b
000001d0: 4888 4bbc 6618 253c 74a6 88bc 0337 c33b
000001e0: d55d ff3c 7cd7 21bd 31b7 f43c 0806 17bd
000001f0: c071 bdbc 5ca8 13bc b0e3 093b 3316 9bbc
00000200: 88ed 02bd abce 073d 2084 773c 3a40 cd3c
00000210: 0c4a 0ebd 5053 4abc 80ba 533b 5297 d2bc
00000220: 97c1 5a3c 3ea1 7ebc 50dd 9e3b b909 3ebd
00000230: dc7f d6bc 5f3d 16bd 95dc 1e3b a70f c33c
00000240: 805c 043d 803a 93bc 7412 003d e712 be3c
00000250: 8762 12bb 6da6 013b d52a e43a 2420 bb3c
00000260: e386 8d3c d4e1 16bd 3db9 1e3c b6df 05bd
00000270: 5118 14bc 0015 26bd 6aa3 f83c 2ce7 d7bc
00000280: d3eb 23bc 6500 18bb 860b 2bbc 06aa 8cbc
00000290: 40d7 5b3b 5e26 9d3c 5ee7 90bc b80f 813b
000002a0: a008 0fbc 727c f63c ca4e eb3c f2e0 0bbd
000002b0: 45a5 42bd 153e e33b c8fb f6bc 5e4e f5bb
000002c0: 1f7d 47bd 66ba f5bc 4b3b 07bd ef4a 193b
000002d0: 7f1a 813c 5dd4 2ebd 92e2 fe3c dcd5 2a3a
000002e0: a766 623c addb 39bd 19a5 f9bc 5333 1abd
000002f0: 0227 693c 7465 c33c b3c9 233d aa8c 8f3c
00000300: e906 993c 2a17 15bc e285 75b9 3df0 8bbc
00000310: 8a5a 4fbc 9d3d f43c 00f9 a5bc 7bb6 f7bc
00000320: e58b 093d d634 c9bc 6e86 55bb 2123 fc3b
00000330: 8477 0a3d b03f 04bd 9251 933c d512 37bd
00000340: 00ae bf3b e440 2abc ba6e de3c 6c21 bfbc
00000350: 14bb 1dbd 1750 31bd 52c4 5b3c 1bfc 3abd
00000360: 28ac 02bd bd52 e5bb 5dae b8bc bf78 ab3c
00000370: bcd4 52bb ef15 7f3a 1094 f03c 31ff a0bc
00000380: ad54 5fb9 796a 58bc 8a64 4bba 5201 57bc
00000390: a41d 8dbc 0422 c13c 23e1 b9bb 2eba 0a3d
000003a0: 7b7f aa39 6ac0 023c 97e2 18bc 205c a7bc
000003b0: ddf0 d33c 2f54 b93b 35b9 2dbd 5db5 a2bc
000003c0: a96d d43c b730 1abd 8339 32bc 15d7 85bb
000003d0: fbd8 a53c 7fd7 bbb7 d49d 92bc e4d0 023d
000003e0: 3aa7 083d 6f82 333c bd33 20bc 1a8f ef3c
000003f0: 651f 28bd e981 d63c 2896 b13c 4a32 f73c

deconv2.bias f4 [32]
-0.007116247 0.019803662 0.0056096814 0.022261582 0.018800829 0.014024178 -0.021053856 0.028410356
-0.046824303 0.0095743425 0.018194657 -0.010284439 0.004954481 -0.011776812 0.033614736 0.035508193
-0.03848181 0.024153551 0.02124343 0.019946638 -0.02913818 -0.012998385 -0.062848315 -0.013483649
0.020040201 -0.010328797 0.05134708 -0.031030776 0.013868726 -0.024908556 -0.025921445 0.025789633
00000000: 682f e9bb 4a3b a23c 6bd1 b73b ec5d b63c
00000010: 3204 9a3c aac5 653c 2379 acbc d6bc e83c
00000020: d7ca 3fbd b4dd 1c3c f60c 953c 1080 28bc
00000030: 3359 a23b 88f3 40bc 9baf 093d 0a71 113d
00000040: 1a9f 1dbd abdd c53c b406 ae3c 2267 a33c
00000050: 31b3 eebc 2ef7 54bc 9eb6 80bd 86ea 5cbc
00000060: 592b a43c 1d3a 29bc 5151 523d 4134 febc
00000070: a739 633c 070d ccbc 3659 d4bc c844 d33c

out.weight f4 [1, 32, 1, 1]
0.11632564 0.1418435 0.14629747 -0.13502546 -0.23465757 -0.18301979 -0.09639874 0.001215122
0.07322896 -0.13359798 0.0070140446 0.056192577 -0.14118062 -0.013727359 0.14332703 -0.05867232
-0.83014613 -0.07994669 -0.17004575 -0.0737451 0.11620882 0.0038222226 -1.0159433 0.14972079
-0.1422513 0.026046272 -0.16279216 -0.14504191 0.15145014 0.101018235 -0.2020833 -0.19538808
00000000: 233c ee3d 6c3f 113e 01cf 153e 1d44 0abe
00000010: 134a 70be 8a69 3bbe b46c c5bd bb44 9f3a
00000020: 11f9 953d e9cd 08be 12d6 e53b 302a 663d
00000030: a791 10be b7e8 60bc 52c4 123e 6352 70bd
00000040: 7584 54bf 17bb a3bd 7920 2ebe ac07 97bd
00000050: e4fe ed3d 417e 7a3b 6e0a 82bf 6850 193e
00000060: 53aa 11be fe5e d53c fdb2 26be de85 14be
00000070: bf15 1b3e a6e2 ce3d edee 4ebe d013 48be
